agent_20200723/model.npz (npz, 127892 bytes, 8 tensors)

l2/W f4 [128, 128]
0	0xbe73fb96	-0.23826441
1	0xbdd346f0	-0.10316265
2	0x3db7555c	0.08951828
3	0x3d235c7c	0.03988312
4	0xbfc1a9bd	-1.5129925
5	0xbc55ae39	-0.013042026
6	0xbe9cea36	-0.3064744
7	0x3dba8a14	0.091083676
8	0xbe1db7ac	-0.15402097
9	0x3c5c9bcc	0.013464879
10	0x3cf4888b	0.029850265
11	0x3e8c95f3	0.27458152
12	0xbeb3dc6f	-0.35129115
13	0x3e75f918	0.24020803
14	0x3d9bce61	0.07607723
15	0xbe9e7e1c	-0.3095559
16	0x3e1d856e	0.1538293
17	0xbd083527	-0.033253815
18	0x3ead9a42	0.33906752
19	0xbe0eb628	-0.13936675
20	0x3e114641	0.14186956
21	0x3eb753b4	0.35806048
22	0x3bf19e12	0.00737358
23	0x3e161395	0.14655907
24	0xbdcfe8bf	-0.10151815
25	0x3d57bcf4	0.052670434
26	0xbcfefb5b	-0.031125715
27	0xbcb088f8	-0.021549687
28	0xbdc416a3	-0.0957463
29	0x3f07c70c	0.53038096
30	0x3dfa2f2f	0.12216031
31	0xbd9ed10d	-0.07754717
32	0xbe1740aa	-0.14770761
33	0xbcc8d585	-0.024515877
34	0x3e0bc40b	0.13649003
35	0x3c673704	0.014112238
36	0xbd2b7e80	-0.041868687
37	0x3d609b57	0.054835644
38	0x3d9ad8a9	0.07560856
39	0xc066f81d	-3.6088936
40	0xbe871444	-0.2638265
41	0xbdb3eab7	-0.08785003
42	0x3d24cbac	0.0402333
43	0x3dc6fa6d	0.09715734
44	0xbd981afd	-0.074270226
45	0x3eaeb68d	0.3412365
46	0xbecbeee3	-0.39830694
47	0xc0fccdf1	-7.9001393
48	0x3d187fb2	0.037231155
49	0xbe178695	-0.14797433
50	0x3df7f6bf	0.1210761
51	0x3cb64bf4	0.022253014
52	0xbe4abff6	-0.1979979
53	0x3c9a2f81	0.01882148
54	0x3bb85d74	0.005626375
55	0xc048ac4b	-3.135516
56	0xc09f58b6	-4.979579
57	0x3e0e71d0	0.13910604
58	0x3cc6d96c	0.024273597
59	0xbdc05d8f	-0.09392845
60	0xbe6f3807	-0.23361216
61	0xbff794d1	-1.934229
62	0xbf5cb3ac	-0.8621166
63	0xbd3a2cd4	-0.045452908
64	0x3d1148d9	0.035469864
65	0x3d5dbc6d	0.054134775
66	0x3e0e0fcf	0.13873218
67	0xbddd948e	-0.1081935
68	0xbc471ed4	-0.012153346
69	0xc01145f1	-2.269894
70	0x3d3164a1	0.043308858
71	0xbe4d44a8	-0.20045722
72	0x3d25f776	0.0405192
73	0x3c6894fb	0.014195676
74	0xbe637ffe	-0.22216794
75	0x3d359f47	0.04434135
76	0x3de757cb	0.11296042
77	0x3ce77ad9	0.02825682
78	0xc0d7ce5c	-6.7439404
79	0x3d06df53	0.032927822
80	0x3e7d07ec	0.24710053
81	0xbe06fb88	-0.13181889
82	0x3e803b32	0.25045162
83	0x3e293dbe	0.16527459
84	0x3d3a1e27	0.04543891
85	0xc0640373	-3.5627105
86	0xbe841105	-0.25794235
87	0x3e671e41	0.22570135
88	0x3d9c633a	0.076361135
89	0x3ea575c8	0.32316422
90	0x3e94b77d	0.2904624
91	0xbed24d3c	-0.4107455
92	0xbcb5c75a	-0.022189785
93	0xc01dd732	-2.4662595
94	0x3d9e5729	0.07731468
95	0xbe60a547	-0.21938048
96	0x3ece0698	0.40239406
97	0x3cde1c6c	0.027113162
98	0x400c152f	2.188793
99	0x3ec03c62	0.37546068
100	0xbf30a1a3	-0.6899664
101	0x3e0dabbc	0.13835043
102	0x3e2f2844	0.17105204
103	0xbcf5fe63	-0.030028528
104	0xbe8c573e	-0.2741031
105	0xbf0c3bdf	-0.54778856
106	0x3e8efecb	0.27928767
107	0x3e253a32	0.16135481
108	0xbdbae53a	-0.09125753
109	0xbe26f42b	-0.1630408
110	0xbd76933c	-0.060199007
111	0xbd1de4dc	-0.038548335
112	0x3e36c828	0.17849791
113	0x3ec2062a	0.37895328
114	0xbdf9c490	-0.121956944
115	0x3e091f9f	0.13390969
116	0x3e3f0acf	0.18656467
117	0x3e3b5cdd	0.18297143
118	0x3d7c7776	0.061637364
119	0x3e3ee448	0.1864177
120	0x3dacec4f	0.0844351
121	0x3df21f31	0.118223555
122	0x3db2f9a0	0.087390184
123	0xbf0b4818	-0.5440688
124	0xbd837053	-0.064179085
125	0xbe9aa973	-0.30207404
126	0x3f6fbefb	0.9365079
127	0x3cd75305	0.026284704
128	0xbed57982	-0.41694266
129	0x3db39d34	0.087702185
130	0x3e868616	0.26274174
131	0xbdb54aa9	-0.08852131
132	0xbf92b7e6	-1.1462371
133	0xbcc4c59c	-0.024020009
134	0xbdfe442b	-0.12415346
135	0xbb9e460a	-0.0048301267
136	0xbc560396	-0.013062378
137	0xbe062ec4	-0.13103777
138	0x3e43267e	0.19057652
139	0x3ed18460	0.40921307
140	0xbeefc77c	-0.46831882
141	0x3d94f2c6	0.07272868
142	0x3d736b3e	0.059428446
143	0xbe902687	-0.28154394
144	0x3e44945d	0.19197221
145	0x3da04fd4	0.07827726
146	0x3ebb0641	0.3652821
147	0x3e0e4bd2	0.1389611
148	0x3e34e493	0.17665319
149	0x3ed879ba	0.4228037
150	0xbdab24ca	-0.08356626
151	0xbd86f493	-0.065896176
152	0x3e8ad91a	0.2711876
153	0x3da4fad0	0.08055651
154	0xbe1f732f	-0.15571283
155	0x3db5cb7e	0.08876704
156	0xbef49fff	-0.47778317
157	0x3f19dfc8	0.6010709
158	0xbe110497	-0.14161907
159	0xbe97dc14	-0.29660094
160	0xbe9a918d	-0.3018917
161	0xbdf0ef31	-0.11764372
162	0x3cf2580f	0.029583005
163	0x3d47f68d	0.048819114
164	0x3d93fbf5	0.07225791
165	0x3e10803d	0.14111419
166	0xbd74ac99	-0.059734914
167	0xc04e2ab4	-3.2213564
168	0xbec38a15	-0.38191286
169	0xbe1f53ab	-0.1555926
170	0xbe14a5b1	-0.14516331
171	0xbd408fde	-0.047012202
172	0xbda5a3a6	-0.08087854
173	0x3f06ad76	0.5260843
174	0xbe145e0f	-0.14489006
175	0xc0dc85d7	-6.891338
176	0x3eb4faf0	0.353477
177	0xbe27cf09	-0.16387571
178	0xbc296e9e	-0.010341315
179	0x3e901313	0.28139552
180	0xbf0e3270	-0.5554571
181	0xbdd19c94	-0.10234943
182	0x3e575917	0.21030079
183	0xc024a757	-2.5727136
184	0xc08959f1	-4.292229
185	0xbc72ee48	-0.0148273185
186	0x3db56447	0.08857017
187	0xbe8c701d	-0.27429286
188	0xbe470c9a	-0.19438401
189	0xbfc45e19	-1.5341216
190	0xbf8f7525	-1.1207625
191	0xbe5b3b14	-0.21409255
192	0xbc723de5	-0.014785265
193	0x3c88b48d	0.016687656
194	0x3dbec853	0.093155526
195	0xbcd61d72	-0.026137087
196	0xbd24587f	-0.04012346
197	0xc000ae36	-2.010633
198	0xbd71a502	-0.058995254
199	0xbe8958b5	-0.2682549
200	0x3ee82fe8	0.4534905
201	0xbc6ac749	-0.01432974
202	0xbf03b6ca	-0.5145079
203	0x3e7454dc	0.23860496
204	0x3d3c6d17	0.046002474
205	0x3d7abf3f	0.061217543
206	0xc0cabc96	-6.3355207
207	0x3e85cd33	0.26133117
208	0x3e911828	0.28338742
209	0xbce6a07a	-0.028152693
210	0x3cf8443c	0.030305974
211	0xbbd1bf63	-0.006400989
212	0x3e5d06fb	0.21584694
213	0xc0242d0e	-2.56525
214	0xbec5529a	-0.38539582
215	0x3df662a1	0.12030531
216	0xbda70c77	-0.08156674
217	0x3edbdf29	0.42943695
218	0x3ecd8d4d	0.40146866
219	0xbe661f1c	-0.22472805
220	0x3d77e3da	0.06052003
221	0xbff280f6	-1.8945606
222	0x3ec00ea3	0.37511167
223	0xbebf7b76	-0.3739888
224	0x3f2c244b	0.6724288
225	0xbd010d15	-0.031506617
226	0x4011d75a	2.278769
227	0x3e9796cb	0.29607233
228	0xbf2b834f	-0.66997236
229	0x3d31e2e7	0.04342928
230	0xbcbc6b4d	-0.023000384
231	0xbe4922d3	-0.1964219
232	0xbc724a98	-0.014788292
233	0xbf458119	-0.7715011
234	0x3e91d0f1	0.28479722
235	0x3e174963	0.14774089
236	0xbd92b87a	-0.07164092
237	0xbdb3bc38	-0.08776134
238	0xbe72e078	-0.2371844
239	0xbedb5873	-0.4284092
240	0xbd815abd	-0.06316135
241	0x3e682cfa	0.22673407
242	0xbee68ae5	-0.45027843
243	0x3e0f733d	0.14008804
244	0x3e81889d	0.2529954
245	0x3df353f9	0.11881251
246	0x3e79c091	0.24389865
247	0x3e88480a	0.2661746
248	0xbd1d8aa2	-0.03846229
249	0x3e232878	0.15933406
250	0xbdbfe98e	-0.09370719
251	0xbf32b235	-0.6980317
252	0xbeaca213	-0.33717403
253	0xbdee0526	-0.11622076
254	0x3f3b9fde	0.7329081
255	0x3c2cac5e	0.010539142

l2/b f4 [128]
0	0x40020603	2.031617
1	0x4004a983	2.0728462
2	0x3e3ea22f	0.18616556
3	0xbd648d73	-0.05579896
4	0x3ff796d7	1.9342908
5	0x3f69b8b2	0.9129745
6	0x3f2f4e18	0.68478537
7	0x3e2d1b37	0.16904913
8	0x3fed7564	1.855145
9	0x3e7e62ed	0.24842425
10	0x3f1680a5	0.58790046
11	0xbf8eed6d	-1.1166207
12	0x3f140c52	0.578313
13	0x4000f3ce	2.0148807
14	0x3f4564a9	0.7710672
15	0x3f43d67a	0.7649914
16	0x3e4b81bb	0.19873707
17	0x3daca8b0	0.08430612
18	0x3f3d096a	0.7384249
19	0xbfc47b75	-1.5350176
20	0x4026187e	2.595245
21	0x3e8e650e	0.27811474
22	0x3fe16dae	1.7611597
23	0x3f47cd8e	0.78048027
24	0xbf6e9742	-0.9319955
25	0xbdab925d	-0.08377526
26	0x3ffcd059	1.9751083
27	0x3df3fd92	0.11913599
28	0x3ffe9a23	1.9890789
29	0x3dcd3430	0.100197196
30	0x400b0b81	2.1725771
31	0x3dab8858	0.08375615
32	0x400c1f31	2.1894038
33	0x3da7e7a4	0.08198479
34	0xbcca27c7	-0.02467717
35	0xbdd36089	-0.10321147
36	0x3eb409f5	0.35163847
37	0x3fef129e	1.8677557
38	0xbc61e896	-0.013788363
39	0x3fedba00	1.8572388
40	0x3e463273	0.19355182
41	0x3dc78b0a	0.097433165
42	0xbb970f68	-0.004609991
43	0xbb25c0bd	-0.0025291883
44	0x3de45325	0.11148671
45	0x3ea393c3	0.3194867
46	0x3feb9187	1.8403786
47	0xb93d8616	-0.00018074395
48	0xbfbba5a0	-1.465992
49	0x3f37a430	0.71734905
50	0x3fe563bc	1.7921062
51	0xbcabc9a9	-0.020970182
52	0x3ff05fe3	1.8779262
53	0xbbfe7e87	-0.007766548
54	0xbde04b64	-0.109518796
55	0xbc502263	-0.012703511
56	0xbb3f5915	-0.0029197384
57	0x40024969	2.0357306
58	0xbca32d4e	-0.019919064
59	0xba9ce023	-0.0011968653
60	0x3feaedfe	1.835388
61	0xbcbc1d9c	-0.022963338
62	0x3e19a882	0.15005687
63	0x3f1e0a80	0.6173477
64	0xbbf71835	-0.0075407275
65	0x3e08745d	0.13325639
66	0x00000000	0.0
67	0x3ffaf068	1.9604616
68	0x3e7b4630	0.24538493
69	0x3f077c19	0.52923733
70	0x3fdf2ab9	1.7434913
71	0xbc9e9212	-0.019356761
72	0x3ffad560	1.9596367
73	0xbd5b7f3b	-0.053588133
74	0xbf2b4beb	-0.66912717
75	0x3f535f0c	0.82566905
76	0x3fe05b53	1.752787
77	0x3e0b9f06	0.13634881
78	0x3f5f69d4	0.87270856
79	0x3d3a4064	0.045471564
80	0x3fefe0cf	1.8740481
81	0xbfc4041f	-1.5313758
82	0x3fd6ebc1	1.6790696
83	0x3fb81761	1.4382135
84	0x3f3afc75	0.7304147
85	0x404a9e29	3.1659033
86	0x3fec013d	1.8437878
87	0xbd773efd	-0.060362805
88	0xbaa7f7a1	-0.0012814888
89	0xbc3f8f0d	-0.011691821
90	0xbf46ab5e	-0.77605236
91	0x3fe2e9c9	1.7727596
92	0x3e507f0b	0.20360963
93	0xbf9b41bd	-1.2129437
94	0x3ff84b3b	1.9397959
95	0xbca58706	-0.020205986
96	0x3df154a5	0.11783723
97	0xbaa9764b	-0.0012928931
98	0xbcd24253	-0.025666391
99	0x3f4bd00d	0.79614335
100	0xbc46c20b	-0.012131224
101	0x400c7058	2.194357
102	0xbc639b08	-0.013891943
103	0x3ecc4f00	0.39904022
104	0x4000a864	2.0102777
105	0x40051ac3	2.0797584
106	0xbc70dbbc	-0.014700826
107	0x3fcf9d3b	1.6219858
108	0xbda7db5a	-0.08196135
109	0x3fd63025	1.6733443
110	0x3f0afc56	0.54291284
111	0x3fe37f53	1.7773231
112	0x40044d25	2.0672085
113	0x3f12dbd5	0.5736669
114	0xbc4b254c	-0.012399029
115	0xbe0cafb6	-0.13738903
116	0xbdae9c58	-0.08525914
117	0xbdd12f65	-0.10214118
118	0x3ff3c954	1.9045815
119	0x3e34b205	0.17646034
120	0x3fec24ed	1.8448769
121	0xbb553444	-0.0032532373
122	0xbc3a9701	-0.011388541
123	0x3fe81155	1.8130289
124	0x3f4bf6db	0.79673547
125	0x3fe0716b	1.7534612
126	0x3d18b725	0.037284035
127	0x3fefa13e	1.8721082

l1/W f4 [128, 2]
0	0xbd180367	-0.03711262
1	0xbfede96a	-1.8586857
2	0xbc6b12bc	-0.014347728
3	0xbdfea144	-0.12433103
4	0xbb5108b4	-0.0031896057
5	0x3c61c70b	0.013780366
6	0x3ca84bed	0.020544017
7	0xbfe395cc	-1.7780089
8	0xbbec9040	-0.0072193444
9	0xbbbaa672	-0.0056961114
10	0xbc6614b9	-0.014043027
11	0xbbbeda25	-0.0058243447
12	0xbe6c63e6	-0.23084983
13	0x3f03024d	0.51175386
14	0x3b58e031	0.0033092613
15	0x3e0596bd	0.13045783
16	0xbf12cc4a	-0.5734297
17	0xbed83a0d	-0.4223179
18	0xbcb58d28	-0.022162035
19	0x3bda7a5e	0.0066674193
20	0xbe0dd777	-0.13851725
21	0x3ec7cde2	0.39024264
22	0xbe025a24	-0.12729698
23	0x3de7091b	0.112810336
24	0x3b7dcd8a	0.0038727247
25	0xbd1e16f9	-0.038596127
26	0xbc0ceedc	-0.00860187
27	0xbc5ae5fb	-0.013360496
28	0xbbf79ca9	-0.007556517
29	0xbd227d56	-0.03967031
30	0x3ec96d15	0.39341035
31	0xbe9982c6	-0.29982585
32	0xbc302dd9	-0.010753118
33	0xbcbab89c	-0.022793107
34	0xc012d303	-2.2941291
35	0xbe14281a	-0.14468423
36	0x3c4c3c76	0.012465587
37	0x3da1f6c7	0.07908397
38	0xbeef0235	-0.4668137
39	0xbe7c28fa	-0.24625006
40	0xbbc8c9bc	-0.0061275642
41	0xbb52a47b	-0.0032141495
42	0xbe022c9f	-0.12712334
43	0x3e41a88c	0.18911952
44	0xbaa2c218	-0.0012417464
45	0x3b78329e	0.0037871967
46	0xba69f0c5	-0.0008924122
47	0xbb5b20f3	-0.0033436387
48	0xbe9aee49	-0.30259922
49	0xbe3f2924	-0.18668038
50	0xbfb105ba	-1.3829873
51	0x3d2b1fd2	0.041778393
52	0xbc4145e7	-0.011796451
53	0x3a2da1ff	0.00066235656
54	0xc013ef7e	-2.3114924
55	0x3e9c0baa	0.3047765
56	0xbc1c37b9	-0.00953477
57	0xbdd53ee2	-0.104123846
58	0xbdba5246	-0.09097724
59	0x3e797f18	0.24364889
60	0xbb29403a	-0.0025825636
61	0xbc27eee9	-0.010249832
62	0xbc7c63b0	-0.015404627
63	0xbbb19abc	-0.005420057
64	0xbc8e2e2e	-0.017356005
65	0x3b5818f6	0.0032973862
66	0xbc0f4eaa	-0.008746782
67	0x3c1658fc	0.009176489
68	0x3ecdcbb2	0.4019447
69	0xbf0e3dc9	-0.55563027
70	0xbb98d61b	-0.0046641952
71	0x3e1d7c25	0.15379389
72	0xbdaabc54	-0.08336702
73	0x3e65f430	0.22456431
74	0xbbda4151	-0.0066606184
75	0xbe4a1944	-0.197362
76	0xbc79c470	-0.015244588
77	0xbbd1086c	-0.006379178
78	0xbfb37693	-1.4020561
79	0xbe230075	-0.15918143
80	0x3eb1f61b	0.34758076
81	0x3d13329a	0.03593693
82	0xbaa1132a	-0.0012289037
83	0xb94b116a	-0.00019366076
84	0xbc6cbf00	-0.014449835
85	0x3b4df8bb	0.0031428772
86	0xbb1a6efa	-0.0023564682
87	0xbc56d3b9	-0.013112002
88	0xbb7ae8e0	-0.0038285777
89	0x3adaa44b	0.0016681043
90	0xbde78eb2	-0.11306514
91	0x3e93a2e4	0.28835213
92	0x3b5d453f	0.0033763198
93	0xbf36905c	-0.71314025
94	0xc02ecce8	-2.7312565
95	0x3f29e3ca	0.66363204
96	0xbf0b9421	-0.545229
97	0x3e49155b	0.19637053
98	0xbc7d2eb3	-0.0154530285
99	0x3e83b70a	0.25725585
100	0x3b50e0db	0.0031872306
101	0x3e0859dd	0.1331553
102	0xbd844078	-0.06457609
103	0x3c929056	0.01789109
104	0xbc3cd93a	-0.0115264
105	0xbc40db22	-0.011770995
106	0xbc2d7fd2	-0.010589557
107	0x3a9379a0	0.0011251457
108	0xbb11c02f	-0.0022239794
109	0xbcc5e97b	-0.024159184
110	0xbfab7a10	-1.3396626
111	0xbe802e51	-0.25035337
112	0xbf9ebbe5	-1.2401091
113	0x3e94e5fc	0.29081714
114	0xbc35c588	-0.011094458
115	0xbd0a8f26	-0.033827923
116	0x3b54b04b	0.0032453712
117	0xbc6fa1d8	-0.014625989
118	0xb902e38f	-0.00012482538
119	0xbd2a4259	-0.04156718
120	0xbc0af32f	-0.008480831
121	0x3bfc1ce5	0.007693874
122	0xbf84adc9	-1.0365535
123	0xbee2dbab	-0.44308218
124	0xbcbc2695	-0.022967616
125	0xbf696bc6	-0.91180074
126	0xbea7ad92	-0.3274961
127	0x3f821d19	1.016513
128	0xbfe8be1d	-1.8183018
129	0x3eb8b965	0.36078945
130	0xbed516ca	-0.4161895
131	0xbd3068cb	-0.04306869
132	0xbc06c4fa	-0.008225674
133	0x38928998	6.987451e-05
134	0xbc9fa7c2	-0.019489173
135	0xbbe3c8c2	-0.0069514224
136	0xbd91b74f	-0.071150415
137	0x3e1ba9c1	0.15201475
138	0xc01c8d9b	-2.446143
139	0xbe7fbfa5	-0.2497545
140	0x3e586a52	0.21134308
141	0xbf2bf8d6	-0.6717657
142	0xbc7602c3	-0.015015307
143	0xbc6a2934	-0.01429205
144	0xbed33275	-0.41249433
145	0xbcaaddec	-0.020857774
146	0xbc1834ce	-0.009289933
147	0xbcb24fb6	-0.021766525
148	0xbb9cde49	-0.0047872406
149	0xbbebeb76	-0.0071997
150	0xbee42938	-0.44562697
151	0xbe002649	-0.12514605
152	0xbfb677cf	-1.4255313
153	0xbf0d7afc	-0.55265784
154	0xbe21072d	-0.15725394
155	0x3f734577	0.9502787
156	0xbfe09893	-1.7546562
157	0x3ede0cf6	0.43369263
158	0xbaf46533	-0.0018645882
159	0xbcf7869c	-0.030215554
160	0x3eba95c1	0.36442378
161	0x3ca80935	0.020512203
162	0xba9fed81	-0.0012201519
163	0xbba45b20	-0.0050157458
164	0xbe4dc57c	-0.20094866
165	0xbde47ec7	-0.11156993
166	0xbd0596fd	-0.032614697
167	0xbe22a358	-0.15882623
168	0xbc2f7653	-0.010709363
169	0xbc1fb412	-0.009747522
170	0x3e3f80dc	0.187015
171	0x3f76b7e6	0.96374357
172	0xba20a6fe	-0.00061283994
173	0x3c8117b8	0.01575838
174	0xbbc95c9a	-0.006145072
175	0xbc1700a0	-0.009216458
176	0xbeed942f	-0.46402118
177	0x3ef9ccaf	0.48788974
178	0xbf176662	-0.591406
179	0xbfdabbf3	-1.7088608
180	0x3f12dbc6	0.573666
181	0x3f25226a	0.64505637
182	0xbcc38baf	-0.023870317
183	0xbd2c0996	-0.04200133
184	0x3b39c4d6	0.0028346083
185	0xbea2edfc	-0.31822193
186	0xbfa2efc0	-1.2729416
187	0xbe62fa0b	-0.22165696
188	0xba8b983b	-0.0010650227
189	0xbd88319e	-0.06650089
190	0x3ba620db	0.0050698346
191	0x3caa0264	0.020753093
192	0xbdc137bb	-0.09434458
193	0x3ebe14fa	0.3712538
194	0xbb7531de	-0.0037413756
195	0xbc050a13	-0.008120078
196	0x3e877f47	0.26464292
197	0xbef1fbed	-0.47262517
198	0x3da6e213	0.08148589
199	0x3f5f64f1	0.872634
200	0x3ebecf2d	0.37267438
201	0xbb098584	-0.0020984123
202	0x3b28156e	0.0025647539
203	0x3e292909	0.1651956
204	0xbd969117	-0.073518924
205	0xbdfdc210	-0.1239053
206	0x3b6edbcf	0.0036446934
207	0xbd3d7d74	-0.04626222
208	0xbd7e02a9	-0.062014256
209	0x3e95f447	0.2928793
210	0x3ec301d4	0.38087332
211	0xbb2cec7b	-0.002638607
212	0xbe03c3b5	-0.12867625
213	0xbc44928f	-0.011997833
214	0xbdf40f25	-0.11916951
215	0xbc8882d6	-0.01666395
216	0x3ecac0ef	0.39600322
217	0x3ee8a2a9	0.454366
218	0xbc8fe032	-0.01756296
219	0x3b5738bc	0.0032840213
220	0xbd75db34	-0.0600235
221	0xbf45e672	-0.77304757
222	0xbc0ed02a	-0.008716622
223	0xbc5920eb	-0.013252477
224	0xc02b1b3e	-2.6735377
225	0x3e4bb82f	0.19894479
226	0xbe0eadfb	-0.13933556
227	0x3d3034ce	0.04301911
228	0xbb10aa81	-0.0022074284
229	0xbc30f874	-0.010801423
230	0xbea520f6	-0.3225171
231	0xbe673495	-0.22578652
232	0xbd15801e	-0.036499135
233	0x3f6df031	0.9294463
234	0xba770efb	-0.00094245345
235	0x3aa46568	0.0012542428
236	0x390f1404	0.00013644999
237	0xbb9b8f85	-0.0047473335
238	0xbe1952e8	-0.14973032
239	0xbfb42618	-1.4074125
240	0xbbc99c26	-0.0061526475
241	0x3bedcc44	0.0072570164
242	0x3e9f47a4	0.31109345
243	0x3ec943f9	0.39309672
244	0xbe883158	-0.26600146
245	0xbe9b24c9	-0.30301502
246	0xbb10460e	-0.0022014412
247	0xbf1fb4a7	-0.6238503
248	0xbb82fa07	-0.0039970907
249	0xbb2882d2	-0.002571274
250	0xbbcaa4b3	-0.0061841845
251	0xbc60370c	-0.013684999
252	0x3da98ea1	0.082791574
253	0xbd195ba2	-0.037440903
254	0xbe9a386d	-0.30121174
255	0x3e60750f	0.21919654

l1/b f4 [128]
0	0xc02bd45d	-2.6848366
1	0xbf96c917	-1.1780118
2	0xbdcc0bbd	-0.099631764
3	0xbf3cf6f1	-0.738143
4	0xbdbe4384	-0.09290221
5	0xbdca96f4	-0.09892073
6	0xc0230248	-2.5470142
7	0xbfbbd748	-1.4675074
8	0x3fa4b8a9	1.2868854
9	0xbe23e9c2	-0.1600714
10	0x3f8da530	1.1066036
11	0x3fc24f13	1.5180382
12	0xc00e9072	-2.2275662
13	0xbdce1aec	-0.10063729
14	0xbe8728b1	-0.26398233
15	0xc010907b	-2.2588184
16	0xbe06ae98	-0.1315254
17	0x3f8e0920	1.1096535
18	0x3f388bd1	0.7208834
19	0x3f884b91	1.0648061
20	0xbd9189a7	-0.07106333
21	0x3fcbeb34	1.5931153
22	0xbcbda231	-0.023148628
23	0xbd92d11f	-0.07168793
24	0x3f2c5eb3	0.67332
25	0xbe35075a	-0.17678586
26	0xbd9a9043	-0.07547047
27	0xbf98b783	-1.1931003
28	0xbebefa9c	-0.37300575
29	0x3fe0301b	1.7514681
30	0xbdf927ae	-0.121657714
31	0xbe133ada	-0.14377919
32	0xbe1e9ef1	-0.15490319
33	0xbe3c67c9	-0.18398966
34	0xbfa0d061	-1.2563592
35	0xbfbb2947	-1.4621972
36	0xbfbf0e61	-1.4926263
37	0xbf42d25e	-0.76102245
38	0xbde6108f	-0.11233627
39	0x401ad05e	2.4189677
40	0xc01f24b8	-2.4866161
41	0xbc6e5d33	-0.014548588
42	0xbe12ec2e	-0.14347908
43	0xbd69af0c	-0.057051703
44	0xbe2705cc	-0.16310805
45	0x3fc4c915	1.5373865
46	0xc00bcd3b	-2.1844013
47	0x402ddbd1	2.7165415
48	0x3fc78d1a	1.5589936
49	0xbf991345	-1.1959006
50	0xbfa33366	-1.275006
51	0xbf2541a6	-0.64553297
52	0xbdcbb886	-0.099473044
53	0xbd95c734	-0.073133856
54	0xbdde38d7	-0.10850685
55	0x4004c68a	2.0746179
56	0x3f9d92f2	1.2310469
57	0xbe26b870	-0.16281295
58	0xbfa629bb	-1.2981485
59	0xbe8f95ae	-0.28043884
60	0xbe8bc08a	-0.27295333
61	0x3f7cad2f	0.9870176
62	0xc03c5713	-2.9428146
63	0xbf75e18e	-0.96047294
64	0x3d9d011a	0.07666226
65	0x3f36f1de	0.7146281
66	0xbd6272bc	-0.0552852
67	0xbe16b3b1	-0.14716984
68	0xbf9634fd	-1.1734921
69	0x3fd8158b	1.6881574
70	0xbfbe3709	-1.4860545
71	0xbe0d228a	-0.13782707
72	0x3febdfe7	1.8427705
73	0xbdeec27e	-0.1165819
74	0xbd4d5169	-0.050126467
75	0x3f80f9b7	1.0076207
76	0xbf63c5d3	-0.8897373
77	0xbf8a397c	-1.0798793
78	0x3fdf698e	1.7454088
79	0xbe2caaf1	-0.16862084
80	0x3ee782aa	0.45216876
81	0xbcbc509a	-0.022987653
82	0x3eb51e81	0.35374835
83	0xbf1e35c1	-0.6180077
84	0xbdb94cdb	-0.09047862
85	0xc08b8140	-4.3595276
86	0xbd8da1e6	-0.06915645
87	0xbe299ba8	-0.16563284
88	0xbff78f6b	-1.9340643
89	0x3f12aece	0.5729798
90	0x3f1511e0	0.582304
91	0xbe6dbb8a	-0.23216072
92	0xbf9f20b6	-1.2431858
93	0x4003f3eb	2.0617626
94	0xbe8dc28e	-0.27687496
95	0xc001ca8d	-2.0279877
96	0x3fd4199d	1.6570317
97	0xbd3e16df	-0.04640853
98	0x4056079f	3.3442152
99	0x3f5be026	0.858889
100	0xc028d22b	-2.6378276
101	0xbf8350c1	-1.0259019
102	0xbf4be9b7	-0.79653496
103	0xbfd045b7	-1.6271275
104	0xbfc7bee6	-1.5605133
105	0xc02c3979	-2.6910079
106	0x3fb5aaf7	1.4192799
107	0x3fa8df93	1.319323
108	0xc00113d7	-2.016836
109	0xbdf80abe	-0.12111424
110	0xc025519d	-2.5831063
111	0xbdc9b30b	-0.09848603
112	0xbf14ae1d	-0.58078176
113	0x3fcaa7db	1.5832475
114	0xbd658f32	-0.056044765
115	0x3fe3f3ec	1.7808814
116	0x3f82839a	1.0196412
117	0xbc8e12d1	-0.017342957
118	0xbdfc2cef	-0.12313258
119	0x3fd754f2	1.6822798
120	0xbd8c0387	-0.0683661
121	0xbfaff76c	-1.3747382
122	0x3fd4e0ae	1.6631067
123	0xc00bbc6b	-2.1833751
124	0xbd3f64e0	-0.04672706
125	0xbdad81e2	-0.08472039
126	0x400833dc	2.1281652
127	0x3fd22066	1.6416137

l3/W f4 [128, 128]
0	0xbdab8c6b	-0.08376392
1	0xbdc14c36	-0.09438364
2	0xbcc38b9a	-0.023870278
3	0x3cd2fa16	0.025754016
4	0xbdbe0fb3	-0.09280338
5	0xbdb1d1bd	-0.086825825
6	0xbdd3ebf4	-0.10347739
7	0xbe14bc4f	-0.14524959
8	0x3cd84bfd	0.026403422
9	0xbdc5de43	-0.09661534
10	0xbe2c458d	-0.16823407
11	0x3de81c3e	0.11333512
12	0xbd10d6e4	-0.035361186
13	0xbe69e2d2	-0.22840431
14	0xbbd1ff9f	-0.0064086462
15	0x3b03d6b0	0.0020116977
16	0xbdbbb6a6	-0.09165697
17	0x3d3ce73f	0.04611897
18	0xbe12e035	-0.1434334
19	0x3c93347a	0.017969359
20	0xbe7c0100	-0.24609756
21	0x3dfe9bdd	0.12432072
22	0xbcfcdebb	-0.030867925
23	0xbd960307	-0.07324796
24	0x3ddc594c	0.107592195
25	0xbcf31210	-0.029671699
26	0xbce02532	-0.027361486
27	0x3bcf0f25	0.006318944
28	0xbe302616	-0.17202029
29	0x3d2eab8e	0.042644076
30	0xbe547968	-0.20749438
31	0x3d223ab0	0.03960675
32	0xbdbd3427	-0.09238463
33	0xbdb31bad	-0.08745513
34	0xbcdc5c9c	-0.026899628
35	0x3d8c1aef	0.06841075
36	0xbd0eef9a	-0.03489647
37	0xbccd837f	-0.025087116
38	0xbce7e5bf	-0.028307794
39	0xbdcd031c	-0.10010359
40	0xbd347c8c	-0.04406409
41	0xbd597100	-0.05308628
42	0x3d23e5f5	0.040014226
43	0xbd33eda2	-0.043927796
44	0x3e3deefa	0.18548194
45	0xbd242ca2	-0.040081628
46	0xbda6bcde	-0.08141492
47	0xbdd65e8e	-0.104672536
48	0xbe24e622	-0.16103414
49	0xbe741015	-0.2383426
50	0x3d093615	0.033498842
51	0x3e362a4a	0.1778957
52	0x3d9259d1	0.07146037
53	0x3d1756cb	0.036948007
54	0xbdd7bca3	-0.105340265
55	0xbb8f3dfa	-0.004371402
56	0x3cc43e2a	0.023955423
57	0xbd84a690	-0.06477082
58	0xbe5824c4	-0.21107775
59	0xbb2eb749	-0.002665954
60	0x3cf84b81	0.03030944
61	0x3dc6faea	0.09715827
62	0xbd82d8ea	-0.06389029
63	0xbeb4dd1f	-0.35324952
64	0xbd117d18	-0.03551969
65	0x3dd56667	0.10419922
66	0x3d7f1e31	0.062284652
67	0xbdd48da6	-0.1037858
68	0xbd9ed6e0	-0.07755828
69	0xbe00f1b8	-0.12592208
70	0x3dfccdf6	0.123439714
71	0xbdcb6dd4	-0.099330574
72	0x3d30f6fa	0.043204285
73	0xbd2654f5	-0.040608365
74	0xbca04835	-0.019565681
75	0xbd73b8f0	-0.059502542
76	0xbd3bcf62	-0.045852073
77	0xbc8ecc23	-0.017431324
78	0x3de165ab	0.1100572
79	0x3db8d670	0.09025276
80	0x3e796457	0.24354683
81	0xbe47b7f7	-0.19503771
82	0xbe01c679	-0.12673368
83	0x3cc08a59	0.02350347
84	0xbdc7546d	-0.097329
85	0xbe455c02	-0.1927338
86	0x3bdb5eab	0.006694635
87	0xbde41bac	-0.111380905
88	0x3cd88b2a	0.026433546
89	0x3cb435a2	0.02199823
90	0x3df2f2a7	0.118626885
91	0x3d291f41	0.04128957
92	0x3e030308	0.12794125
93	0xbe32e4ce	-0.17470095
94	0xbd9dad0f	-0.07699024
95	0x3e01332e	0.1261718
96	0xbe123af8	-0.14280307
97	0x3b71257d	0.0036796026
98	0xbdaeccc2	-0.08535148
99	0x3de912cb	0.113805376
100	0x3d845d8d	0.06463156
101	0x3d0e7caa	0.034786858
102	0x3e1cecc4	0.15324694
103	0xbc5686c0	-0.01309365
104	0x3dd0911b	0.10183927
105	0xbdc7a5f2	-0.097484484
106	0xbd439007	-0.047744777
107	0xbd9a6960	-0.0753963
108	0xbcb0acb4	-0.021566726
109	0x3da01a2e	0.078174934
110	0xbde99206	-0.11404805
111	0xbe7ec3bb	-0.24879353
112	0xbe9ba7ed	-0.30401555
113	0xbd99577e	-0.07487391
114	0xbdd62db1	-0.10457934
115	0xbdb219dd	-0.08696339
116	0xbe300b83	-0.17191891
117	0xbe96b510	-0.29435015
118	0xbe2f126a	-0.17096868
119	0x3cd8959f	0.026438532
120	0x3d9498ea	0.072557285
121	0x3c3b5c3b	0.011435564
122	0x3da5d6e7	0.0809763
123	0x3dc460e7	0.09588795
124	0xbd6dba9c	-0.058039293
125	0xbe066c92	-0.13127354
126	0x3d3f685b	0.04673038
127	0x3da3c857	0.07997196
128	0xbbf78f77	-0.007554944
129	0x3e31a4a5	0.17347963
130	0xbe4b99d0	-0.19882894
131	0x3e4bea64	0.19913632
132	0x3dfe56c7	0.12418895
133	0xbe02f8e3	-0.12790255
134	0xbe0395e0	-0.12850142
135	0x3cbb1679	0.022837864
136	0xba70c5ad	-0.00091847294
137	0xbd534564	-0.051579848
138	0xbd44e1d0	-0.048066914
139	0x3db85a78	0.090016305
140	0xbe8e357d	-0.27775183
141	0x3d3d0199	0.0461441
142	0xbd2d4194	-0.04229887
143	0xbd404a5e	-0.046945922
144	0x3e1d19a7	0.15341817
145	0xbe65cb3d	-0.2244081
146	0x3ca1f4e4	0.019770093
147	0xbd3e9d00	-0.046536446
148	0xbf4c39fe	-0.7977599
149	0xbde0a0a8	-0.10968143
150	0x3df0af22	0.11752154
151	0xbcf28ad2	-0.02960721
152	0x3de3ee7e	0.11129473
153	0x3e25ea3d	0.16202636
154	0xbd8ac630	-0.067760825
155	0x3e1c2c61	0.15251304
156	0xbf0aa842	-0.5416299
157	0xbe13d83c	-0.14437956
158	0x3c26941b	0.010167147
159	0xbc42b38f	-0.01188363
160	0xbe2bfd40	-0.16795826
161	0x3c129428	0.008946456
162	0x3bd480b1	0.006485068
163	0xbe49acea	-0.19694868
164	0x3ce1ee08	0.027579322
165	0xbe27f687	-0.16402636
166	0x3e097006	0.1342164
167	0x3cab6b11	0.020925077
168	0x3d2fd948	0.042931825
169	0x3e171ea3	0.1475778
170	0x3d81f2e1	0.063451536
171	0x3d77c837	0.060493674
172	0x3cafc7cb	0.021457573
173	0x3dab803b	0.083740674
174	0xbe03d2f8	-0.12873447
175	0x3dca66fc	0.09882924
176	0x39cb85f2	0.00038818974
177	0xbbf02548	-0.007328663
178	0xbdf6f4f9	-0.120584436
179	0xbdb15c76	-0.08660214
180	0xbcfe91c0	-0.031075358
181	0x3cc84359	0.024446176
182	0xbe3ad6e1	-0.18246032
183	0xbc867600	-0.016413689
184	0x3ce4deae	0.027938213
185	0xbdca3c55	-0.09874789
186	0xbd00caaa	-0.031443276
187	0xbb4e89ab	-0.0031515162
188	0x3b0b86e0	0.0021290109
189	0x3df05f38	0.117369115
190	0xbd46b659	-0.048513744
191	0xbdd4b16c	-0.10385403
192	0xbd364a5e	-0.044504516
193	0xbe076354	-0.13221484
194	0xbc8000e7	-0.01562543
195	0xbcc4a128	-0.024002627
196	0xbe00843c	-0.12550443
197	0x3d044c2a	0.0322992
198	0xbdd53cc6	-0.10411982
199	0x3d27fdc0	0.04101348
200	0xbc70b1e2	-0.014690848
201	0x3db01f48	0.085997164
202	0xbdb35058	-0.08755559
203	0x3da69d19	0.08135433
204	0x3e11633e	0.14198014
205	0x3dcd8270	0.100346446
206	0xbdccc612	-0.099987164
207	0x3e750068	0.23925936
208	0x3def6382	0.116889015
209	0x3c8dc58b	0.01730611
210	0xbb8f0035	-0.0043640384
211	0x3c7134fd	0.014722106
212	0x3d492fec	0.049117967
213	0xbf5752ab	-0.84110516
214	0xbe8c63e6	-0.27419966
215	0x3da31ef2	0.07964887
216	0xbdf4a219	-0.1194498
217	0x398bdd3e	0.00026676984
218	0x3c5197f1	0.012792573
219	0x3dcc7054	0.099823624
220	0x3de70204	0.11279681
221	0x398efeb6	0.00027274125
222	0x3cf521fc	0.029923432
223	0x3cd7e7e3	0.02635569
224	0xbe1490aa	-0.1450831
225	0xbc2b14a0	-0.010441929
226	0xbe4bec2b	-0.1991431
227	0xbb5aafcd	-0.0033368946
228	0x3d03785c	0.032097206
229	0xbe35675e	-0.17715213
230	0x3d7e2b7e	0.062053196
231	0x3dce588e	0.10075484
232	0x3c602215	0.013680001
233	0xbc221100	-0.009891748
234	0x3e058dc8	0.13042367
235	0xbe703506	-0.23457727
236	0x3d86ee4a	0.06588419
237	0x3d029dc6	0.031888746
238	0xbe48e7a3	-0.19619612
239	0x3cb6eeca	0.02233066
240	0x3d2de6d5	0.042456467
241	0xbd80d615	-0.06290833
242	0xbdca5ef4	-0.09881392
243	0xbdd29921	-0.10283113
244	0xbbda87a2	-0.0066690007
245	0x3c727535	0.014798452
246	0x3da03fb9	0.07824654
247	0xbe0cf778	-0.13766277
248	0xbdf21b3c	-0.11821601
249	0x3d512247	0.05105808
250	0xbd001710	-0.031271994
251	0xbc69b828	-0.014265098
252	0xbda8faba	-0.08250947
253	0xbe04ff52	-0.12988022
254	0x3be9d696	0.0071361763
255	0xbd3bf347	-0.045886304

l3/b f4 [128]
0	0xbcb313d8	-0.021860048
1	0xbe0d62fd	-0.13807292
2	0x3fa8c666	1.3185546
3	0xbbfd0a32	-0.0077221626
4	0x400fe2f2	2.2482266
5	0x3fba6343	1.4561542
6	0xbd667791	-0.05626637
7	0xbca24c2e	-0.019811716
8	0xbbf2ac0d	-0.007405764
9	0xbc329f2b	-0.010902206
10	0x3facb25f	1.3491935
11	0xbcd03140	-0.02541411
12	0x3fb15088	1.3852701
13	0x40375bcd	2.864978
14	0x3f91f672	1.1403334
15	0x40051410	2.0793495
16	0xbd0d1b30	-0.034449756
17	0x400ef528	2.2337132
18	0x3fa4d1e2	1.2876551
19	0xbe8a053d	-0.26957121
20	0xbd946476	-0.07245724
21	0x4017f9f1	2.3746302
22	0x4027da4f	2.6226995
23	0x3fb0271b	1.3761934
24	0xbba571ab	-0.0050489507
25	0x3cb4a1d5	0.022049824
26	0x40134f9e	2.3017344
27	0x40102c82	2.2527165
28	0x3c4789be	0.012178836
29	0x402fd227	2.7472017
30	0xbf8e6ec1	-1.112755
31	0x3fb1f436	1.3902652
32	0x400f59c7	2.2398546
33	0xbeef05de	-0.46684164
34	0xbe6ea031	-0.23303296
35	0x4029ed13	2.6550949
36	0x4020aa04	2.510377
37	0x3f850986	1.0393531
38	0x3fb0f93e	1.3826063
39	0x3ae5ccb9	0.0017532326
40	0xbab72311	-0.0013972243
41	0x4039e29d	2.9044564
42	0x3f8e3bd2	1.1112006
43	0xbf01ff9c	-0.50780654
44	0x400c3ccf	2.1912115
45	0xba8bb9d3	-0.0010660238
46	0xbd1012f9	-0.035174344
47	0xbf27b0e6	-0.655043
48	0x3f8e62c5	1.1123892
49	0xbf3e40e6	-0.7431778
50	0x40085f61	2.1308215
51	0x3ff7a18a	1.9346173
52	0x40372de8	2.862177
53	0xbad73b5a	-0.0016420886
54	0x3ba9c630	0.0051810965
55	0x40123f75	2.285123
56	0x401d691f	2.459541
57	0x3fa20c83	1.2660068
58	0xbba7bdcd	-0.0051190616
59	0x3f9e490e	1.2366045
60	0xbf36df4d	-0.7143448
61	0xbad08dc0	-0.0015911385
62	0xbbe3cb54	-0.006951729
63	0x3fb69061	1.4262811
64	0xbe518a44	-0.204629
65	0x3ffbfcfb	1.9686579
66	0xbf3679c3	-0.71279544
67	0xbcd95b96	-0.02653293
68	0x3c3b30c8	0.011425205
69	0x40223ae3	2.5348442
70	0x3f9c7791	1.2223989
71	0x40200b60	2.5006943
72	0xbf13f3c4	-0.5779383
73	0x3fbb1c80	1.4618073
74	0x3f69d384	0.9133837
75	0x3fb7341b	1.4312776
76	0x3fa13570	1.2594433
77	0x4034a223	2.822396
78	0xbae88748	-0.0017740512
79	0xbc47f6cc	-0.012204837
80	0x3e5e6956	0.2171987
81	0xbed976b2	-0.4247337
82	0x4046fbab	3.1091106
83	0x3f8e2344	1.1104512
84	0x4008a1bc	2.1348715
85	0xbc8fb5ff	-0.017542837
86	0x3fe10432	1.7579405
87	0x402157c9	2.520983
88	0xbf8f046a	-1.1173222
89	0x3ec8c925	0.3921596
90	0xbe5ff014	-0.21868926
91	0xbb0e412d	-0.0021706328
92	0x400f1a77	2.2359903
93	0x3f938d3f	1.152748
94	0xbdf08f36	-0.11746065
95	0xbae350bf	-0.001734279
96	0xbf1eb765	-0.6199859
97	0xbf3df0e2	-0.74195683
98	0x3fa3187a	1.2741845
99	0x3fd4312a	1.6577504
100	0xbbbcc30a	-0.005760555
101	0x40222d09	2.5339987
102	0x3fced190	1.6157703
103	0x3faa2887	1.3293618
104	0xbdc559d6	-0.096362755
105	0x403400b7	2.8125436
106	0xbe9efe15	-0.31053224
107	0xbf251293	-0.64481467
108	0xbb2aec21	-0.0026080685
109	0xbf03ba1c	-0.51455855
110	0x3ac02b59	0.0014661356
111	0xbbbec12b	-0.0058213673
112	0x4007b4a8	2.1204014
113	0x402ef318	2.7335873
114	0xbc05b344	-0.008160416
115	0x3f8ea50b	1.1144117
116	0x3f74008b	0.9531333
117	0x3f6a145a	0.91437304
118	0x3e9f6712	0.31133324
119	0x4005af64	2.08883
120	0xbed1667d	-0.40898505
121	0xbd83be9d	-0.06432841
122	0xbdbd4dd7	-0.092433624
123	0x3c79271a	0.015207076
124	0x40248cd0	2.5710945
125	0x401fc3d4	2.4963274
126	0x3f99a130	1.2002316
127	0x3f1036b2	0.5633346

l4/W f4 [2, 128]
0	0xbcd2688f	-0.025684623
1	0xbe891000	-0.2677002
2	0xbffc94f1	-1.9732953
3	0xbdcf9581	-0.101359375
4	0x3fbefa03	1.4920048
5	0xc01bd8d7	-2.4351099
6	0xba94ca42	-0.0011351781
7	0x3c3aa311	0.011391417
8	0xb884e335	-6.336571e-05
9	0xbda3eedb	-0.080045424
10	0xbdd43974	-0.10362521
11	0xbde865d8	-0.1134755
12	0xc00e27d6	-2.2211814
13	0x3f0308c9	0.5118528
14	0xbe47c823	-0.1950994
15	0x3daeb4e8	0.08530599
16	0xbc9b7aa7	-0.018979384
17	0x3f92d5c0	1.1471481
18	0x3f245795	0.6419614
19	0xbe2b4cd1	-0.16728522
20	0xbcf9d7d1	-0.030498417
21	0x3ea16272	0.3152042
22	0x3fa4fb39	1.2889167
23	0xbd8ef478	-0.069802225
24	0x3c9d2c40	0.01918614
25	0x3d2226c3	0.039587747
26	0x3ed4664a	0.4148429
27	0x3e862aea	0.26204616
28	0xbbae415c	-0.00531785
29	0x3f14f52c	0.581866
30	0x3fc6beac	1.5526938
31	0xbd9fae7f	-0.07796954
32	0x3f050003	0.5195314
33	0xbd686906	-0.056740783
34	0xbc34a6f2	-0.011026131
35	0x3ee78236	0.4521653
36	0x3eeebecd	0.46629944
37	0xbd8e22f8	-0.069402635
38	0xbdef9f45	-0.117003
39	0xbb78a91c	-0.0037942594
40	0xbd85de2e	-0.06536518
41	0x3f25f335	0.6482423
42	0xbfcde11e	-1.6084325
43	0xbdd0e084	-0.10199073
44	0x3bb6fa3b	0.005584029
45	0xbc70991a	-0.01468494
46	0xbc3f7c6b	-0.011687378
47	0x3c7fceb8	0.01561325
48	0x3d4e87e8	0.05042258
49	0x3d2a369e	0.041555993
50	0xbd9c913c	-0.07644889
51	0xbde17362	-0.11008336
52	0x3e9354df	0.2877569
53	0x3b0de47e	0.0021651085
54	0x3bf67227	0.0075209322
55	0x3e97ba37	0.29634258
56	0x3b5ba562	0.0033515324
57	0xbcb287a9	-0.021793203
58	0x3df26242	0.118351474
59	0xbe526c06	-0.2054902
60	0x3c020efb	0.007938142
61	0x3c1b44a1	0.009476812
62	0xbcf250b2	-0.029579494
63	0xbe4bb079	-0.19891538
64	0xbe0ac1a1	-0.13550426
65	0x3f9cb7db	1.2243608
66	0xbc953d55	-0.018217722
67	0x3c5f4775	0.0136278765
68	0x3c24da6b	0.0100618405
69	0x3f1f1bee	0.6215199
70	0xbfed77db	-1.8552202
71	0x3fc5e5a1	1.5460702
72	0x3db0bca9	0.08629734
73	0x3ae92aac	0.0017789206
74	0xbfa734ac	-1.3062949
75	0xc0157d1b	-2.3357608
76	0xc0010d1e	-2.0164256
77	0x3f0ca91e	0.5494555
78	0x3ce5676b	0.028003415
79	0xbd821b6f	-0.06352889
80	0x3ea24f33	0.3170105
81	0x3abd332a	0.0014434804
82	0x3f177262	0.5915891
83	0xbc2ad4e4	-0.010426734
84	0xbd2b2d87	-0.041791465
85	0xbcb01b11	-0.021497281
86	0x3d3b2372	0.0456881
87	0x3f0e7937	0.5565371
88	0x3e97a682	0.29619223
89	0xbdcd9d41	-0.100397594
90	0xbeb1ae63	-0.3470336
91	0xbd9964d5	-0.07489935
92	0xbcd86e77	-0.026419861
93	0x3eff9179	0.49915674
94	0xbd0c7304	-0.034289375
95	0x3df93669	0.12168581
96	0x3d525518	0.051350683
97	0xbd1a111e	-0.03761398
98	0xc0026680	-2.037506
99	0xbd0b85f0	-0.03406328
100	0xbd03261f	-0.032018777
101	0x3ed7ce19	0.42149428
102	0x3f69add9	0.91280895
103	0xbd5dbc89	-0.05413488
104	0xbc93b4df	-0.018030582
105	0x3f28bdf0	0.6591482
106	0xbe859706	-0.26091784
107	0xbdd2f759	-0.10301084
108	0xbb305eb0	-0.0026911907
109	0x3a479650	0.0007613646
110	0x3cb9dbbe	0.022687789
111	0xbb9bd4b5	-0.0047555813
112	0x3eb3ae44	0.35093892
113	0x3f06f87a	0.52722895
114	0x3d86258b	0.065501295
115	0xbfe0b646	-1.7555625
116	0xbe0da198	-0.13831174
117	0x3e8d9f8e	0.27660793
118	0xbe81b715	-0.25334993
119	0x3eb91fc5	0.3615705
120	0xbd613ee3	-0.054991614
121	0x3c1510e4	0.009098265
122	0x3bc2ab68	0.0059408434
123	0x3c548524	0.012971196
124	0x3ee8fafe	0.45503992
125	0xbcc99989	-0.024609344
126	0xbde11536	-0.10990374
127	0x3d024d1b	0.031811815
128	0x3e900968	0.28132176
129	0xbe6b0829	-0.22952332
130	0xc009500c	-2.1455107
131	0x3d8d3c9d	0.06896327
132	0x3fb1a85a	1.3879502
133	0xc00c5c61	-2.1931384
134	0xbe39a535	-0.18129428
135	0x3dcbaa18	0.09944552
136	0x3c5b9e54	0.013404448
137	0x3d0f3e1f	0.034971353
138	0xbc8126f9	-0.015765654
139	0xbc71a4da	-0.014748776
140	0xc0027d01	-2.0388796
141	0x3ec0476d	0.37554494
142	0xbd0ea707	-0.03482726
143	0x3e1d9562	0.15389016
144	0xbd33da4f	-0.043909367
145	0x3f95c27e	1.1699979
146	0x3f4bd865	0.79627067
147	0x3c24c8e2	0.01005766
148	0xbd4c0704	-0.049811378
149	0x3ea9eb81	0.33187488
150	0x3fa950ea	1.3227818
151	0x3c9e717d	0.019341225
152	0x3aabeb57	0.0013116401
153	0xbd1355ff	-0.035970684
154	0x3eedce80	0.4644661
155	0x3eae7ecf	0.34081122
156	0xbd983435	-0.07431833
157	0x3f0d8c0b	0.55291814
158	0x3fdd756b	1.7301458
159	0xbdacac16	-0.0843126
160	0x3f2167b9	0.63048893
161	0x3d833d05	0.06408123
162	0xbe12dd8a	-0.14342323
163	0x3ef23fc7	0.47314283
164	0x3ef54464	0.4790374
165	0x3d4ef763	0.050528895
166	0x3c1f60d9	0.00972768
167	0xbd6e864b	-0.05823354
168	0x3d33eddf	0.043928023
169	0x3f14c9e7	0.5812058
170	0xbfd882ca	-1.6914914
171	0xbc0b5dcb	-0.008506249
172	0xbcb7556f	-0.022379605
173	0xbd987f07	-0.074461035
174	0x3c7201a8	0.014770903
175	0xbbd68df9	-0.006547686
176	0x3dd851cf	0.10562479
177	0xbd665697	-0.056234922
178	0x3c07f505	0.008298163
179	0xbd18aa72	-0.037271924
180	0x3de455fc	0.11149213
181	0xbc819789	-0.015819328
182	0xbb2f3a8c	-0.0026737778
183	0x3e99b762	0.30022722
184	0xbb8bd9a9	-0.0042678905
185	0x3c86068f	0.01636055
186	0x3c83907d	0.016060108
187	0x3c593377	0.013256899
188	0x3c31ecce	0.010859681
189	0xbd8b27a9	-0.06794674
190	0x3b9afcd6	0.0047298474
191	0xbcfece05	-0.031104097
192	0xbda5c40a	-0.08094032
193	0x3f8d0821	1.1018106
194	0xbd7422e4	-0.059603587
195	0x3c90a2a8	0.017655686
196	0xbb3e1eb9	-0.0029010011
197	0x3f27cc3e	0.65546024
198	0xbfeceb10	-1.8509235
199	0x3fb7ccb7	1.4359349
200	0x3d203d33	0.039120864
201	0x3c7d10f1	0.015445934
202	0xbfe69f38	-1.801734
203	0xc00560bf	-2.08403
204	0xbffb642b	-1.9639944
205	0x3ef7e311	0.48415425
206	0xbdb48d5f	-0.08816027
207	0xbc690bea	-0.014224032
208	0x3f0303ba	0.5117756
209	0xbd44f835	-0.04808827
210	0x3edca569	0.43094948
211	0xbd83c95b	-0.0643489
212	0xbc17bfdd	-0.009262052
213	0xbdfa5a5a	-0.122242644
214	0x3da62b25	0.08113698
215	0x3f1c61df	0.6108684
216	0x3e8a4089	0.2700236
217	0xbb4959d8	-0.0030723717
218	0xbd4b4b75	-0.04963251
219	0x3d46470b	0.048407596
220	0x3c23bf7e	0.009994386
221	0x3f1ac83a	0.6046177
222	0xbe5edacb	-0.2176315
223	0xbc1e5cb0	-0.009665653
224	0xbd170918	-0.036873907
225	0xbd89fa65	-0.06737212
226	0xc0001689	-2.0013754
227	0x3c12ec77	0.00896751
228	0xbcf9afcd	-0.030479336
229	0x3edd1e91	0.43187383
230	0x3f705f69	0.93895584
231	0x3cc3f6fe	0.023921486
232	0xbda8b489	-0.08237559
233	0x3f279521	0.6546193
234	0x3da4759e	0.08030246
235	0x3d11b448	0.03557232
236	0x3cae3231	0.021264168
237	0xbdb1bb0f	-0.08678257
238	0x3e0d7d71	0.13817383
239	0xbc8d13bb	-0.017221322
240	0x3ee90dd7	0.4551837
241	0x3ee262c1	0.44215968
242	0xbbae745b	-0.0053239292
243	0xbfeab0d5	-1.8335215
244	0x3bf2522d	0.00739505
245	0x3ebcfc58	0.36911273
246	0xbcae581b	-0.021282246
247	0x3f01c5d6	0.506925
248	0xbcecf473	-0.028925156
249	0xbd171b11	-0.036891047
250	0xbdf9c0bb	-0.121949635
251	0x3ca93222	0.020653788
252	0x3ecd914b	0.40149912
253	0xbd57608b	-0.052582305
254	0x3d203e62	0.039121993
255	0xb84db38a	-4.9043017e-05

l4/b f4 [2]
0	0x40835448	4.1040382
1	0xbe5de2da	-0.21668568
