agent_20200812_400000/target_model.npz (npz, 127858 bytes, 8 tensors)

l4/b f4 [2]
0	0x3feee16b	1.8662542
1	0xbc29e7df	-0.010370224

l4/W f4 [2, 128]
0	0x3f88d354	1.0689492
1	0xbdbf9e33	-0.09356346
2	0xc16239f3	-14.139148
3	0x3e8b81d8	0.272475
4	0xc01530c5	-2.3311017
5	0xbf9fd3ec	-1.2486548
6	0xbff7eb2a	-1.9368641
7	0xbbbf16d8	-0.0058315806
8	0x3d076738	0.03305742
9	0xbda06b14	-0.078329235
10	0xbe9aaf7b	-0.30212006
11	0xbdbca8f3	-0.09211912
12	0x3c3fa542	0.011697115
13	0x3fee078f	1.8596057
14	0xbd639ca1	-0.055569295
15	0xbfb55c0e	-1.4168718
16	0x3d7ee328	0.06222835
17	0xbe4faa4c	-0.20279807
18	0xbf9e1902	-1.2351382
19	0xbe9b6eeb	-0.3035806
20	0xbfc529ff	-1.5403441
21	0xbe4c702c	-0.19964665
22	0x3f8272dc	1.0191302
23	0xbe3efb1b	-0.18650477
24	0x3fa273dd	1.2691609
25	0xbcd61cf6	-0.026136857
26	0xbe6040ab	-0.21899669
27	0xbeef3c43	-0.46725664
28	0xbe765b19	-0.24058188
29	0xc015158d	-2.3294404
30	0xbed9e233	-0.4255539
31	0x3f6ae705	0.9175876
32	0xbaf31d58	-0.0018548174
33	0xbeb702c4	-0.35744298
34	0xbe8cd816	-0.2750861
35	0x40192ac9	2.3932364
36	0x3eecca78	0.4624822
37	0x3fa38444	1.2774739
38	0xc08d49d8	-4.415264
39	0xbbdd93f2	-0.006762021
40	0xbfec0ab3	-1.8440765
41	0x3f954ab4	1.1663423
42	0xbdf3461c	-0.11878607
43	0x3f522e56	0.82101953
44	0xbfc166c0	-1.5109482
45	0x3e934b24	0.28768265
46	0xbf98b47e	-1.1930082
47	0x3dd4d2e5	0.103917874
48	0x3d7191b6	0.05897685
49	0x3e15b19d	0.14618535
50	0xba1f65ae	-0.000608052
51	0xc077dfce	-3.873035
52	0xbd596ffb	-0.05308531
53	0x3faf90ba	1.3716042
54	0xbfa2a815	-1.2707545
55	0xbe640073	-0.22265796
56	0xbf6f50d7	-0.93482727
57	0x3dff655c	0.12470505
58	0x3e2acbd9	0.16679324
59	0x3f32aac9	0.6979185
60	0xc0b53506	-5.6627226
61	0x3d0a7b86	0.033809207
62	0xbeddc8ee	-0.4331736
63	0xc0e18f98	-7.0487785
64	0xbd331d05	-0.043728847
65	0x3da90613	0.08253112
66	0xbf818347	-1.0118188
67	0x3d88f023	0.066864274
68	0xbe84c6b7	-0.25932857
69	0xbfc28eda	-1.5199845
70	0xc03ffe8c	-2.9999113
71	0x3e57b937	0.21066748
72	0x3eec906d	0.46203938
73	0xbf82ea3b	-1.0227731
74	0x3eefae9b	0.468129
75	0xbd1acef4	-0.037795022
76	0x3d86d3d9	0.065833755
77	0xbd943ec1	-0.07238532
78	0xbf836d6a	-1.0267766
79	0xbef6e3f1	-0.4822078
80	0xbf11c000	-0.56933594
81	0xbf8a6661	-1.0812494
82	0xbe2ed754	-0.17074329
83	0xbf7423b7	-0.95366997
84	0x3d41358c	0.047170207
85	0xc037495c	-2.8638525
86	0xbf3329d1	-0.6998568
87	0xc088e38d	-4.277777
88	0x3f654e90	0.89573
89	0x3d06f3a8	0.032947212
90	0xc109076b	-8.564311
91	0xc0314832	-2.7700315
92	0xbfa07f51	-1.2538854
93	0xbfa64846	-1.2990806
94	0xbf4475d7	-0.7674231
95	0xbe61f248	-0.22065079
96	0x3d418fd2	0.0472563
97	0x3e9d4252	0.3071466
98	0xbf1065b6	-0.564052
99	0x3f7aef6e	0.9802159
100	0xc097f9b7	-4.749233
101	0x3e6e42c1	0.23267652
102	0xbf6969ef	-0.91177267
103	0xbf699072	-0.9123603
104	0xbda9ae50	-0.082852006
105	0xbf8a21a6	-1.0791519
106	0xbbf172e6	-0.0073684333
107	0xbd01a55e	-0.031651847
108	0x3f2f8e8f	0.685769
109	0xbd314229	-0.043275986
110	0xbedb413b	-0.42823204
111	0xbfc25de9	-1.5184909
112	0xbfbaa8e5	-1.4582793
113	0x3e8674aa	0.26260883
114	0xbce58273	-0.028016305
115	0xbf22ed6c	-0.6364353
116	0xbdc0874e	-0.09400807
117	0x3e3d486b	0.18484657
118	0xbfe0ba8e	-1.7556932
119	0xbe3bfdfc	-0.18358606
120	0x3be33dc2	0.0069348523
121	0x3ed3a20a	0.41334563
122	0xbf1644a0	-0.58698463
123	0xbb012ebc	-0.0019711694
124	0x3ef230fe	0.47303003
125	0xbf874409	-1.0567638
126	0x3f9110ef	1.1333293
127	0xbe63556e	-0.22200558
128	0x3f9f2f63	1.2436336
129	0x3f2e779a	0.6815125
130	0x3da89f0a	0.08233459
131	0xbee738b2	-0.45160443
132	0x3e6002e1	0.21876098
133	0x3f858b3d	1.0433117
134	0x40510876	3.2661414
135	0x3d0a5ffe	0.03378295
136	0xbf230a35	-0.6368745
137	0x3baefa87	0.005339924
138	0x400d35ef	2.2064168
139	0xbedec43f	-0.435091
140	0xbf20e18c	-0.6284416
141	0x3fa10e7c	1.2582545
142	0xbf02a893	-0.51038474
143	0xbfe7249a	-1.8058045
144	0xbf445795	-0.7669614
145	0x3ec942b9	0.39308718
146	0x40165b0c	2.349307
147	0x3ec9971e	0.39373106
148	0xbe83a069	-0.2570832
149	0xbeb78c3f	-0.35849187
150	0x3f340b1f	0.7032947
151	0xbe3d8146	-0.18506345
152	0x400ebc2b	2.2302349
153	0x400d75eb	2.2103221
154	0x3fe23821	1.7673379
155	0x3e1f350b	0.15547578
156	0xc0263fe0	-2.5976486
157	0xc02bb28b	-2.6827724
158	0x3f10bb11	0.5653544
159	0xc019b5cd	-2.4017212
160	0xbf0ae461	-0.5425473
161	0xbd2bb253	-0.04191811
162	0xbc9e0979	-0.019291626
163	0xbf658858	-0.8966117
164	0xbfbd5202	-1.4790652
165	0x3f59b7b8	0.8504596
166	0xbefdc928	-0.49567533
167	0x3ecdf383	0.40224847
168	0xbea9d52d	-0.33170453
169	0x3f804795	1.0021845
170	0x3e8ca1a0	0.2746706
171	0x3f312e73	0.692115
172	0xbf1ac8db	-0.6046273
173	0xbf5b30ea	-0.8562151
174	0x3ff965bb	1.9484171
175	0x3eb630fa	0.3558424
176	0x3f5d79ea	0.8651415
177	0xbf3af91f	-0.7303638
178	0x3d5cded9	0.05392346
179	0x3cb0ee78	0.021598086
180	0xbdf5726d	-0.119847156
181	0x3f9c8c5c	1.2230334
182	0xbe8db8eb	-0.27680144
183	0x3ff4081b	1.9064974
184	0x3f8297bd	1.0202557
185	0x4006ee68	2.1083012
186	0x401ff664	2.4994135
187	0xbfa52325	-1.290135
188	0xbe90d162	-0.28284746
189	0xbd8f392f	-0.06993329
190	0x3f9b9179	1.215377
191	0x3d1fe2a3	0.039034497
192	0xbfa2ef31	-1.2729245
193	0xbdfe7748	-0.12425095
194	0xbfc3e581	-1.5304414
195	0x3eab3a2d	0.33442822
196	0x3c36bfe1	0.011154146
197	0xbf9c4dd3	-1.221125
198	0xbee7bb94	-0.45260298
199	0x3f3ecf07	0.7453465
200	0xbf8e229b	-1.1104311
201	0x3ece0efd	0.4024581
202	0xc0494058	-3.1445522
203	0xbfabaf77	-1.3412923
204	0xbf8cdee5	-1.1005522
205	0x3e40d310	0.18830514
206	0xbf493142	-0.78590786
207	0x3f34cfc4	0.70629525
208	0xbe5c8f12	-0.21538952
209	0x3ee5a823	0.4485484
210	0x3f2c9da4	0.6742804
211	0xbf9c4191	-1.2207509
212	0x3d9265e1	0.07148338
213	0x3e0eb0c5	0.1393462
214	0x3ede5993	0.43427715
215	0x3e43c806	0.19119272
216	0xc090da6f	-4.5266643
217	0xbe951a4a	-0.2912162
218	0xbeab42c6	-0.33449382
219	0x3e0896ff	0.1333885
220	0x3e3ed0cc	0.18634337
221	0x3ea6be50	0.32567072
222	0xbd6f4103	-0.05841161
223	0x40301e2d	2.7518418
224	0xbe148276	-0.14502892
225	0xbdd94c10	-0.10610211
226	0xc03fdd18	-2.9978695
227	0xc045bdf1	-3.089718
228	0x3f009a07	0.5023503
229	0x3ef42d5d	0.4769086
230	0xbfd41553	-1.6569008
231	0x3fd64cec	1.6742225
232	0x3f0d08b3	0.550914
233	0xbf37f739	-0.71861607
234	0xbe153871	-0.14572312
235	0xbe1e1813	-0.15438871
236	0x3f090d86	0.5353626
237	0xbd695171	-0.056962434
238	0x3e841dcc	0.25803983
239	0x3fc4d208	1.5376596
240	0x3fb0fd3b	1.382728
241	0x3e051121	0.12994815
242	0xbcb6095f	-0.022221265
243	0xbecef6ae	-0.40422577
244	0xbf3ae485	-0.73004943
245	0xc06e19c5	-3.7203228
246	0xbf7fe3fe	-0.99957263
247	0xbdfa3e0a	-0.12218864
248	0xbcacb950	-0.021084458
249	0xc005f0a3	-2.0928123
250	0xbf3c2856	-0.7349905
251	0xbe6ba28d	-0.23011227
252	0xbfb79bae	-1.4344385
253	0x3e9c5e51	0.30540708
254	0x3b8982ea	0.0041965144
255	0xbea7b60c	-0.32756078

l1/b f4 [128]
0	0xc0a3463f	-5.102325
1	0xc01a6057	-2.41213
2	0x408c0848	4.376011
3	0x408106a8	4.0320625
4	0x00000000	0.0
5	0x00000000	0.0
6	0x3f9ebb29	1.2400867
7	0x00000000	0.0
8	0x00000000	0.0
9	0x3e83bffe	0.25732416
10	0x00000000	0.0
11	0x3ea3623e	0.3191089
12	0x00000000	0.0
13	0x00000000	0.0
14	0x3f372dce	0.7155427
15	0x00000000	0.0
16	0x3fc9ed95	1.5775629
17	0x3e8f3acf	0.27974555
18	0xbeab7121	-0.33484748
19	0xbff4bb24	-1.9119611
20	0x00000000	0.0
21	0xbf16c087	-0.58887523
22	0x3fe4a767	1.7863587
23	0x00000000	0.0
24	0x00000000	0.0
25	0x00000000	0.0
26	0xbf5b47b4	-0.85656285
27	0x3f0b13de	0.5432719
28	0x407a066b	3.9066417
29	0x00000000	0.0
30	0xc09cc0e8	-4.898548
31	0xbff6890e	-1.9260576
32	0x00000000	0.0
33	0x00000000	0.0
34	0xbc0e2cb3	-0.008677649
35	0xbf1babe5	-0.60809165
36	0x3f14262d	0.5787075
37	0xc094a886	-4.6455717
38	0x3f639644	0.8890116
39	0x3f063e97	0.52439255
40	0x4014c438	2.3244762
41	0xbfc6579d	-1.5495487
42	0x00000000	0.0
43	0xbfd2a72e	-1.6457269
44	0x00000000	0.0
45	0x00000000	0.0
46	0xc03335b1	-2.800152
47	0x3f3d3c81	0.73920447
48	0x4130d094	11.050922
49	0xc0e24fa3	-7.0722213
50	0x3fcd38e7	1.603299
51	0xc023b783	-2.5580757
52	0x40844f8c	4.1347103
53	0xc09fe81f	-4.997085
54	0xc124690c	-10.275646
55	0x3e369021	0.17828418
56	0x00000000	0.0
57	0xc0817c61	-4.046433
58	0xc0173aac	-2.362956
59	0x00000000	0.0
60	0x40380c7b	2.8757617
61	0x00000000	0.0
62	0x3eb402ff	0.35158536
63	0x40484a86	3.1295485
64	0xbe9d42a8	-0.30714917
65	0x3f373630	0.7156706
66	0x00000000	0.0
67	0x00000000	0.0
68	0xbf155034	-0.58325505
69	0xc0a265e9	-5.07494
70	0xbf9eb649	-1.2399379
71	0xc0580aab	-3.3756511
72	0x3e937f06	0.2880785
73	0x409bf3f9	4.873532
74	0xc01b9385	-2.4308789
75	0xc0ba5d69	-5.8239026
76	0x00000000	0.0
77	0x400544fe	2.082336
78	0x3ecea459	0.40359762
79	0x4081cdf7	4.056392
80	0x00000000	0.0
81	0x3f5c3caa	0.86030066
82	0xc0146bbf	-2.3190763
83	0x3f88e84b	1.069589
84	0xbeaca839	-0.33722094
85	0x3f69368a	0.91098845
86	0x3f047508	0.51741076
87	0x407234cc	3.7844725
88	0x3f3ba8b9	0.73304325
89	0x00000000	0.0
90	0xc0ace944	-5.403475
91	0x3f4398b9	0.7640491
92	0xbf8e83cf	-1.1133975
93	0x00000000	0.0
94	0xbf0d0274	-0.5508187
95	0x00000000	0.0
96	0xc0147074	-2.3193636
97	0xc0ae705a	-5.451215
98	0x3faea6e4	1.3644681
99	0x407bc599	3.9339354
100	0xbf47b35e	-0.7800807
101	0x3f45098c	0.7696769
102	0x3ea18b50	0.315516
103	0x3f6c77ac	0.92370105
104	0x00000000	0.0
105	0xc02a58e8	-2.6616764
106	0x3f61a5f9	0.8814388
107	0x00000000	0.0
108	0xc0fed0ad	-7.962973
109	0x00000000	0.0
110	0xbfa15a51	-1.2605687
111	0xc018c964	-2.387292
112	0xbf8113c1	-1.0084153
113	0xbf657aff	-0.896408
114	0x00000000	0.0
115	0x3f3111b1	0.6916762
116	0xbf400126	-0.7500175
117	0xbe2d540b	-0.16926591
118	0x400ccb10	2.199894
119	0xbe066098	-0.13122785
120	0x40511a94	3.2672472
121	0x00000000	0.0
122	0x00000000	0.0
123	0x00000000	0.0
124	0x3f3e56e7	0.7435135
125	0x3fe94dbb	1.8226846
126	0xc00bf45c	-2.1867895
127	0xbfce256b	-1.6105169

l1/W f4 [128, 2]
0	0xc0a36efd	-5.1072984
1	0xbc0c11b7	-0.008549145
2	0x3dba6a7d	0.09102342
3	0x3db1531f	0.08658432
4	0x3e45009b	0.19238512
5	0x3e8cad4b	0.27475962
6	0xbe32a828	-0.17446959
7	0xbdaba591	-0.08381189
8	0xbeb01c96	-0.3439681
9	0xbeeb4d3d	-0.45957366
10	0xbeac7b5d	-0.3368787
11	0xbf988027	-1.1914109
12	0xbe54df28	-0.20788252
13	0xbf18004a	-0.5937544
14	0xbfd82d52	-1.6888831
15	0xbf6cbcd1	-0.9247561
16	0xbf52f356	-0.8240255
17	0xbede389b	-0.43402562
18	0xbf04428d	-0.5166405
19	0xbdb4a48e	-0.08820449
20	0xbeb701c6	-0.3574354
21	0xbdaae46d	-0.0834435
22	0xbd8b79a7	-0.06810313
23	0xbd3417fc	-0.043968186
24	0xbf64503c	-0.8918493
25	0xbf2de51e	-0.6792773
26	0xbe9ef34a	-0.3104499
27	0xbeddff28	-0.4335873
28	0xbdfb4f16	-0.12270944
29	0xbdc13034	-0.09433022
30	0xbe08349c	-0.13301319
31	0xbf067434	-0.5252106
32	0xbe6847d9	-0.22683658
33	0xbee6e194	-0.45093977
34	0xbe36194e	-0.1778309
35	0xbd52f3fa	-0.051502205
36	0xb9cde80b	-0.00039273532
37	0xbea61cd5	-0.32443872
38	0x3d6361de	0.055513255
39	0x3d85eb82	0.0653906
40	0xbea2ca7f	-0.31795117
41	0xbdff1073	-0.12454309
42	0xbeb3a8cb	-0.35089716
43	0x3bfaeaff	0.0076574082
44	0xbe7020a5	-0.23449953
45	0xbe99feb7	-0.30077145
46	0xbf198ff2	-0.5998527
47	0xbed4893d	-0.41510954
48	0xbed5e5f5	-0.41777006
49	0xbf207ed6	-0.62693536
50	0xbeea99b7	-0.458204
51	0xbfb16ce9	-1.3861362
52	0x3cd2a318	0.025712535
53	0x3b88c883	0.0041742935
54	0xbda408b3	-0.08009472
55	0xbe2da041	-0.16955663
56	0xbe2293d8	-0.1587671
57	0xbe1ea784	-0.1549359
58	0xbed5db6c	-0.41768968
59	0xbf484865	-0.78235465
60	0x3e37536f	0.17902921
61	0x3e389d1f	0.18028687
62	0xc0bc0d91	-5.876656
63	0xbee3a09f	-0.44458482
64	0xbf03efde	-0.51537883
65	0xbf7b361f	-0.9812946
66	0xbf92a1cc	-1.1455626
67	0xbe86ed1e	-0.2635278
68	0xbe443ad6	-0.19163069
69	0xbcb59342	-0.022164945
70	0x3cb5f994	0.022213735
71	0x3cb680e1	0.022278251
72	0xbe115be6	-0.14195213
73	0xbda67651	-0.08128036
74	0x3e24efff	0.16107176
75	0x3e2ba8e8	0.16763651
76	0xbe3680ea	-0.17822614
77	0xbdf8577c	-0.12126061
78	0xc05e19f4	-3.470334
79	0xbee3cb18	-0.44490886
80	0xbf89db4b	-1.0770048
81	0xbec28092	-0.37988716
82	0x3d342ff0	0.04399103
83	0x3d3fe054	0.046844795
84	0xbe047468	-0.1293503
85	0xbe8dd08e	-0.27698177
86	0x3d3ad31f	0.045611497
87	0xbebf909d	-0.3741502
88	0xbdfaa62f	-0.12238728
89	0xbe84d7bb	-0.2594584
90	0xbefec426	-0.49759024
91	0xbe6454ae	-0.22297928
92	0x3de36cf0	0.111047626
93	0x3dc9dbac	0.09856352
94	0xbe0b2560	-0.13588476
95	0xbdcae993	-0.09907832
96	0xc00ed591	-2.231785
97	0xbf728363	-0.9473173
98	0x3d6cbe6e	0.057798795
99	0x3f906c95	1.1283137
100	0x3dbd3d33	0.092401884
101	0xbf3de49a	-0.74176943
102	0x3dc86a02	0.097858444
103	0x3da10b63	0.078635
104	0x3d1b4000	0.037902832
105	0x3d19a2f6	0.037508927
106	0xc0d1fc5b	-6.562055
107	0x3effb6a0	0.4994402
108	0x3f6a6e71	0.9157477
109	0xbca8dd0a	-0.020613212
110	0xbd1c1af5	-0.038111646
111	0xbcc658b0	-0.024212211
112	0xbea1ed16	-0.31626195
113	0xbec39495	-0.38199297
114	0x3e226664	0.15859371
115	0x3e0bb74f	0.13644145
116	0x3da7efd5	0.08200041
117	0x3d9a2915	0.07527367
118	0xbfeb95f9	-1.8405143
119	0xbf204e1c	-0.62619185
120	0xbece0969	-0.40241554
121	0xbebd09cf	-0.36921546
122	0xbf7e9611	-0.99447733
123	0xbeb21cbf	-0.34787557
124	0xbe1020c6	-0.14075002
125	0xbf5ea437	-0.8696932
126	0xbec8d884	-0.39227688
127	0xbecd21c1	-0.40064815
128	0xbecf57db	-0.40496716
129	0xbc3d98a3	-0.011572036
130	0xbe12065d	-0.1426024
131	0xbdc500a0	-0.0961926
132	0xbf9a6489	-1.2061931
133	0xbf274d18	-0.6535201
134	0xbe8d5aed	-0.27608433
135	0xbef5aa67	-0.4798157
136	0xbf43647b	-0.76325196
137	0xbca8091b	-0.020512154
138	0xbf0e252e	-0.5552548
139	0x3e2450da	0.16046467
140	0x3d0b2c4f	0.033977803
141	0x3d36a911	0.044594828
142	0xbf1ac67c	-0.60459113
143	0x3dc61fe4	0.096740514
144	0xbe83c3fd	-0.25735465
145	0xbd7d200d	-0.061798144
146	0xbeb832d2	-0.35976273
147	0xbf01fbe5	-0.50774986
148	0x3dc486ec	0.09596047
149	0x3db281ac	0.08716139
150	0x3e049f64	0.12951428
151	0x3f641ddf	0.8910808
152	0xbe3401e5	-0.17578848
153	0xbee5ea60	-0.44905376
154	0xbe86dddb	-0.26341137
155	0xbe929797	-0.2863128
156	0xbe9af5dd	-0.30265704
157	0xc012d45e	-2.2942119
158	0x3b43d916	0.0029884032
159	0xbdc824c6	-0.09772639
160	0xbecb9f7a	-0.39770108
161	0xbf63e37e	-0.89019
162	0xbe01ed39	-0.1268815
163	0xbe886bf7	-0.2664487
164	0x3dad2411	0.08454145
165	0xbc89c27d	-0.016816372
166	0xbe5afe40	-0.21386051
167	0xbe14bda6	-0.1452547
168	0x3b7c60e1	0.0038509893
169	0xbe37328e	-0.17890379
170	0xbe3f90ac	-0.18707532
171	0xbdfc6e72	-0.12325753
172	0xbe59f582	-0.2128506
173	0xbda9af6d	-0.08285413
174	0xbf034255	-0.5127309
175	0xbef57713	-0.4794241
176	0xbdcf222b	-0.10113939
177	0xbe142717	-0.14468037
178	0xbe997de7	-0.29978868
179	0xbe0f400e	-0.13989279
180	0xc0db0d37	-6.845363
181	0x3f02350c	0.50862193
182	0xbdd7a56a	-0.10529597
183	0xbdc6e761	-0.09712101
184	0x3cc33e98	0.023833558
185	0x3d1f95ef	0.038961347
186	0xbeb8491a	-0.35993272
187	0xbea43a9f	-0.32075974
188	0x3c8ce997	0.017201228
189	0xbdb9e6a7	-0.090771966
190	0xbdceb2f7	-0.100927286
191	0xbe4b4efd	-0.1985435
192	0x3d9e8af4	0.07741347
193	0x3d8bcebc	0.06826541
194	0xc09965ce	-4.7936773
195	0x3cb5950b	0.022165796
196	0xbec4b8b2	-0.3842216
197	0xbe486b1f	-0.19572113
198	0xbe262ae1	-0.16227295
199	0xbe2409e6	-0.16019401
200	0xbcab9a71	-0.020947667
201	0x3cdc8c61	0.026922407
202	0xbde2da46	-0.110767886
203	0xbdc962b8	-0.09833282
204	0xbe2ae198	-0.1668762
205	0xbd5d854f	-0.05408221
206	0xbe8fee5a	-0.28111535
207	0xbe09e7d5	-0.13467343
208	0xbe9be690	-0.30449343
209	0xbd75c202	-0.059999473
210	0x3dca3378	0.09873098
211	0x3dbdb38f	0.09262764
212	0xbdf85928	-0.1212638
213	0xbde4c372	-0.11170091
214	0xbec9eb25	-0.39437214
215	0xbdeba2a5	-0.11505631
216	0x3ea12844	0.31476033
217	0x3e912123	0.28345594
218	0xbed212f8	-0.41030097
219	0xbf008f4f	-0.5021867
220	0xbf65e0c5	-0.89796096
221	0x3c4c10ea	0.0124552045
222	0x3d9432b5	0.07236234
223	0xbd17b3ef	-0.037036832
224	0xbb8809bb	-0.0041515506
225	0xbf4365b6	-0.76327074
226	0xbf6158fb	-0.880264
227	0xbb0a6b91	-0.0021121243
228	0xbf537e8a	-0.8261496
229	0xbeff6603	-0.49882516
230	0xbe84385c	-0.2582425
231	0xbddbeda0	-0.10738683
232	0x3cb6577a	0.022258509
233	0xbcf67823	-0.030086583
234	0xbf276716	-0.6539167
235	0xbd64958b	-0.055806678
236	0xbf95400a	-1.1660168
237	0xbec1fe89	-0.37889507
238	0xbe79b6f3	-0.24386196
239	0xbc83b11c	-0.016075663
240	0x3f084922	0.5323659
241	0xbe65cd85	-0.2244168
242	0xbf25702a	-0.64624274
243	0xbe81316a	-0.25233012
244	0xc001a49f	-2.0256727
245	0xbf2c6241	-0.67337424
246	0xbe91f66f	-0.28508326
247	0xbda49aa2	-0.08037306
248	0xbe081393	-0.13288717
249	0xbdcd3f65	-0.10021857
250	0xbeb61f75	-0.35570875
251	0xbe786e94	-0.24260932
252	0x3d967697	0.07346838
253	0x3d9e11f9	0.07718272
254	0x3d4deb49	0.050273214
255	0x3d707f2e	0.058715038

l2/b f4 [128]
0	0x40b9052d	5.781882
1	0x3f11050d	0.5664833
2	0xbf1f298f	-0.6217279
3	0x3f6dd7f6	0.92907655
4	0x3f1a4c46	0.60272634
5	0xbc228858	-0.009920202
6	0x3f48fac9	0.7850767
7	0x3f6e4858	0.9307914
8	0xbf0e4dca	-0.55587447
9	0xbea3bea4	-0.31981385
10	0xbcd07d97	-0.02545051
11	0xc02493b1	-2.5715144
12	0xbb58aad3	-0.0033060804
13	0xbd5772fe	-0.0525999
14	0x3f174dff	0.5910339
15	0x3f8b32d5	1.0874888
16	0xbcea6615	-0.02861313
17	0xbd1af1ef	-0.037828382
18	0x3ea95725	0.33074299
19	0xbea6eb94	-0.32601607
20	0xbcf29218	-0.029610679
21	0xbea0183f	-0.31268498
22	0xbb7ccb3b	-0.0038573283
23	0x3f44a21b	0.76809853
24	0xbdd41de1	-0.103572614
25	0xbeaef4fe	-0.3417129
26	0xbf7abbe7	-0.97942966
27	0xbcdcc948	-0.026951447
28	0xbe725d1a	-0.23668328
29	0xbd3b56e8	-0.045737177
30	0xbbd5ae08	-0.0065209903
31	0xbcaa1415	-0.020761529
32	0xbeecf885	-0.46283355
33	0xbcc21af1	-0.023694487
34	0x3f9509b6	1.1643589
35	0xbe932f98	-0.2874725
36	0x3ed843f2	0.42239338
37	0xbbc65c65	-0.0060534948
38	0xbd34179f	-0.04396784
39	0xc006a52f	-2.103832
40	0x3f100dd0	0.56271076
41	0xbcc2bdf7	-0.023772223
42	0xbf2c2d5f	-0.6725673
43	0xbc499d93	-0.012305635
44	0x404b5b55	3.1774495
45	0x4099a7bd	4.801726
46	0x3f7b8571	0.9825049
47	0x3f334c41	0.7003823
48	0xbe80bf73	-0.25146064
49	0xbb7010df	-0.003663115
50	0xbc814f8e	-0.015785005
51	0xbd28a750	-0.041175187
52	0x3c4d1d07	0.012519128
53	0xbdbcd15f	-0.09219622
54	0x3ed6b481	0.4193459
55	0xbde99472	-0.11405267
56	0xbea3e2b1	-0.3200889
57	0x40bd66f4	5.9188175
58	0xbdbe8bee	-0.09304033
59	0xbc0e073d	-0.008668718
60	0xbcf1d5d2	-0.029520903
61	0x40c7b375	6.2406564
62	0xbc92633e	-0.017869588
63	0xbc336824	-0.010950122
64	0x3f79db19	0.9759994
65	0xbd06811d	-0.032837976
66	0xbc31ea96	-0.010859152
67	0xbbd63534	-0.006537104
68	0xbea3c39b	-0.31985173
69	0xbd9e5276	-0.07730572
70	0x3eb6b3f9	0.35684183
71	0x3f235b1a	0.63810885
72	0xbd1b907b	-0.037979584
73	0xbefbbfe1	-0.4916983
74	0xbbcf0512	-0.006317743
75	0x3f3cb54c	0.7371414
76	0xbcd0efee	-0.025505032
77	0xbd8bd19b	-0.068270884
78	0xbf566bec	-0.83758426
79	0xbd16cfe2	-0.036819346
80	0xbe5df018	-0.2167362
81	0x3e8c7f9d	0.2744111
82	0xbcccafc9	-0.024986165
83	0x403b000f	2.9218786
84	0xbdce31fc	-0.100681275
85	0xbc17a389	-0.009255298
86	0xbcb5ef96	-0.02220897
87	0xbcb3744f	-0.021906046
88	0xbdcbed80	-0.09957409
89	0x3ee2451b	0.44193348
90	0xbbe58bed	-0.007005206
91	0xbed8be39	-0.42332628
92	0xbced5c2f	-0.02897462
93	0xbc7aa38b	-0.015297781
94	0xbe57163d	-0.21004577
95	0x3ed6cef0	0.41954756
96	0x3dd3eaed	0.10347543
97	0xbc5fa869	-0.013650992
98	0x3ecc891e	0.39948362
99	0xbcad10f0	-0.02112624
100	0xbeaed53f	-0.3414707
101	0xbc198788	-0.009370692
102	0x3ec794a0	0.3898058
103	0x3ee02776	0.43780106
104	0x3e3b72aa	0.1830546
105	0x4073e11c	3.8106146
106	0xbe37fdac	-0.17967862
107	0xbca9eb5e	-0.020742115
108	0xbd31afd2	-0.043380566
109	0x3f982454	1.1886086
110	0x405a53f0	3.4113731
111	0xbb1c3b2e	-0.0023838985
112	0x4008b33d	2.1359398
113	0xbf4f9694	-0.8108914
114	0xbea5e21e	-0.32399076
115	0xbdbf9474	-0.09354487
116	0xbdaff92e	-0.08592449
117	0x3f05c381	0.5225144
118	0xbcb48c7c	-0.022039644
119	0x3fae658b	1.3624738
120	0xbd5483a4	-0.051883355
121	0xbc82e8a6	-0.015980076
122	0x3ebe5540	0.37174416
123	0x3f0483c3	0.5176355
124	0xbc0e12ec	-0.0086715035
125	0x4090bb1b	4.52284
126	0xbcfea49f	-0.031084357
127	0x3f326ce1	0.69697386

l2/W f4 [128, 128]
0	0xbf63c932	-0.88978875
1	0x3c8eb85b	0.017421892
2	0x40203e41	2.5037997
3	0x3fa38993	1.2776359
4	0x3bb49f39	0.005512145
5	0xbd994b15	-0.07485024
6	0x3e0ff7c6	0.14059362
7	0xbced7ba7	-0.028989626
8	0xbe4e32aa	-0.20136514
9	0xbe16d2f7	-0.14728914
10	0x3def5e41	0.116878994
11	0x3cc99745	0.024608264
12	0xbd3ae5c1	-0.045629267
13	0xbe18054c	-0.1484577
14	0x3e14b2ab	0.14521281
15	0xbe0acd29	-0.13554825
16	0x3e6ca11b	0.23108332
17	0xbdd85cd6	-0.10564582
18	0xbcbc9752	-0.023021374
19	0xbe78d2bc	-0.24299139
20	0x3d34de5e	0.04415738
21	0x3e5104e0	0.20412016
22	0x3ea0b9c6	0.31391734
23	0x3d3321c4	0.043733373
24	0x3bce7490	0.0063005164
25	0xbc386a18	-0.0112557635
26	0xbe9e9d1e	-0.30979246
27	0xbe36c3e5	-0.17848165
28	0x3fb7ff31	1.4374753
29	0xbd66ade0	-0.056318164
30	0xbe77466a	-0.24147955
31	0xc00c370a	-2.1908593
32	0x3cee0fa0	0.029060185
33	0x3cb91ec2	0.022597674
34	0xbdcb732c	-0.09934077
35	0x3b3677f9	0.0027842505
36	0x3e7e8005	0.24853523
37	0xbee2ac1c	-0.44271934
38	0x3e8d36fc	0.27581012
39	0xbee89166	-0.4542343
40	0x3f3f318c	0.7468498
41	0x3c695f95	0.01424398
42	0xbe1af7ec	-0.15133637
43	0x3e463ce5	0.19359167
44	0xbd548366	-0.051883124
45	0xbdd82949	-0.105547495
46	0xbe62fcac	-0.22166699
47	0x3e09bffe	0.13452145
48	0x40455aa7	3.083658
49	0xc00ec790	-2.2309303
50	0xbe59e8aa	-0.2128016
51	0x3d3a1aaf	0.045435604
52	0x400792c2	2.1183324
53	0x3e602417	0.21888767
54	0xc038acfa	-2.8855577
55	0xbd7be25e	-0.061495177
56	0xbdb1e175	-0.08685581
57	0xbf8b1ee5	-1.0868803
58	0xbdeaacbf	-0.1145873
59	0x3dcfb83c	0.10142562
60	0x3eaa6dcf	0.33286902
61	0x3d47bd38	0.048764437
62	0x3e8e9a0c	0.27851903
63	0x3e7cdb2e	0.24692985
64	0xbe20f6e1	-0.15719177
65	0x3e26fb67	0.1630684
66	0xbd122dd6	-0.035688244
67	0x3c3f4e17	0.011676333
68	0xbf01a967	-0.5064911
69	0xbf2f77b2	-0.68542016
70	0xbeed5a4a	-0.46357948
71	0x3eb611a4	0.35560334
72	0xbeb83449	-0.3597739
73	0x3eca4f68	0.39513707
74	0xbe6f38e0	-0.2336154
75	0xbfda94c1	-1.7076646
76	0x3dc7a6ed	0.097486354
77	0x3e3073d4	0.17231685
78	0x3ea5a4f4	0.32352412
79	0x3fb55f2d	1.416967
80	0xbe29146e	-0.165117
81	0x3e1076a2	0.14107755
82	0xbdba0ab5	-0.090840735
83	0x3f02fee7	0.511702
84	0xbda379ae	-0.07982193
85	0x3e14b4cf	0.14522098
86	0xbec27220	-0.37977695
87	0x3e69cc63	0.22831874
88	0x3e6db6fa	0.23214331
89	0x3d89c610	0.067272305
90	0xbeb56d62	-0.35435015
91	0x3df1c81f	0.11805748
92	0xbe03d802	-0.12875369
93	0xbd71eea0	-0.05906546
94	0xbd306643	-0.043066274
95	0xbdeeb315	-0.11655251
96	0x3c1979f7	0.009367458
97	0xbf706f9c	-0.939203
98	0x3eee8710	0.4658742
99	0x3fb38854	1.4025979
100	0x3e0afc94	0.13572913
101	0xbeed685d	-0.46368685
102	0xbe58f95c	-0.21188873
103	0x3dfb0059	0.12255926
104	0xbe63846f	-0.22218488
105	0xbe0eaf39	-0.1393403
106	0xbe939bee	-0.28829902
107	0xbc947f13	-0.018127
108	0xbf4f6d15	-0.8102582
109	0xbd828668	-0.06373292
110	0xbeb870e1	-0.3602362
111	0xbe02d1f4	-0.12775403
112	0xbe801d49	-0.25022343
113	0xbe694933	-0.2278183
114	0x3df1cc23	0.11806514
115	0x3e4f0186	0.20215425
116	0x3dc265dd	0.09492085
117	0xbe96e490	-0.29471254
118	0x3f176a86	0.59146917
119	0xbd48ad93	-0.04899366
120	0xbcbc129e	-0.022958096
121	0x3dba5036	0.0909733
122	0x3daf4cd3	0.08559575
123	0xbd2c353f	-0.042042967
124	0x3e6ccbfc	0.23124689
125	0x3e875ee2	0.26439577
126	0xbe4e5daf	-0.20152925
127	0x3df4a722	0.119459406
128	0xbdbedcd6	-0.09319465
129	0xbec82faf	-0.3909888
130	0x3c74179e	0.014898209
131	0x3c8caba8	0.017171696
132	0xbd51275d	-0.05106293
133	0x3d2cb554	0.042165115
134	0x3df8506e	0.12124716
135	0x3df2ce0a	0.11855705
136	0xbd101b62	-0.035182364
137	0xbe76f0f4	-0.24115354
138	0xbd10fe93	-0.03539903
139	0x3cfd8436	0.030946832
140	0xbcab4120	-0.020905077
141	0x3d9670f5	0.073457636
142	0x3c48eefd	0.0122640105
143	0x3b440069	0.002990747
144	0xbc516709	-0.012780913
145	0xbda6ff88	-0.081542075
146	0x3d0e1fe4	0.034698382
147	0xbecc0728	-0.3984921
148	0x3c6696b9	0.014074021
149	0xbdce48b5	-0.100724615
150	0xbd59f59a	-0.05321274
151	0xbdedb5dc	-0.116069525
152	0xbc312c38	-0.010813765
153	0xbe199457	-0.14997993
154	0xbdc2f058	-0.09518498
155	0xbf1117fc	-0.5667722
156	0xbddbf263	-0.10739591
157	0x3dcf6be6	0.10128002
158	0xbe833068	-0.2562287
159	0x3f42f6ef	0.7615804
160	0x38ee1efc	0.00011354496
161	0x3dec0742	0.11524822
162	0xbc753269	-0.014965632
163	0xbe22d9b7	-0.15903364
164	0x3c5ea645	0.013589446
165	0x38976b1e	7.220193e-05
166	0xbd9839b6	-0.074328825
167	0xbd4beeea	-0.049788393
168	0xbdc80fea	-0.0976866
169	0xbdc1428d	-0.09436522
170	0x3e16377d	0.14669605
171	0xbeeadb17	-0.45870277
172	0x3d90645e	0.070503935
173	0xbe1bc474	-0.1521166
174	0xbeee6f52	-0.46569306
175	0xbe2d1d2f	-0.16905664
176	0xbd5cc83f	-0.053901907
177	0x3c581fb7	0.013191155
178	0xbee50f22	-0.44738108
179	0xbe589267	-0.21149598
180	0xbe374957	-0.1789907
181	0xbe4e26d4	-0.20131999
182	0xbea89550	-0.32926416
183	0x3e24d920	0.16098452
184	0xbd9037dc	-0.07041904
185	0xbe28b4dc	-0.16475242
186	0xbeb9ee4f	-0.36314628
187	0x3cb19543	0.021677619
188	0xbeb11fce	-0.34594578
189	0x3d587050	0.052841485
190	0x3ce6a6e8	0.028155759
191	0xbe5c18b7	-0.21493803
192	0xbd626877	-0.055275407
193	0xbe1ab186	-0.15106782
194	0x3cb2e09a	0.021835614
195	0xbca7d31b	-0.020486405
196	0xbdeb090a	-0.114763334
197	0xbdf32a3a	-0.118732885
198	0x3d990bcb	0.074729525
199	0xbe639293	-0.22223882
200	0x3d5234f2	0.051320024
201	0xbdedc393	-0.116095684
202	0xbf043f3d	-0.51658994
203	0xbe300182	-0.17188075
204	0x3c52e7f2	0.012872683
205	0xbd0454f0	-0.032307565
206	0x3eb78737	0.35845348
207	0x3e4f501d	0.20245405
208	0xbccb1540	-0.024790406
209	0xbdaace1d	-0.08340094
210	0xbee45f14	-0.4460379
211	0x3d6831d5	0.05668815
212	0x3d35482a	0.044258274
213	0xbd8125af	-0.06306016
214	0xbe62bc66	-0.22142181
215	0xbec0c26d	-0.37648335
216	0xbdc12a47	-0.09431892
217	0x3daa3136	0.083101675
218	0xbc0ee27e	-0.008720992
219	0xbd1e6610	-0.038671553
220	0xbe629744	-0.22128016
221	0xbdb0347e	-0.08603762
222	0xbea596a5	-0.32341495
223	0xbde49271	-0.11160744
224	0xbe880812	-0.26568657
225	0x3d591157	0.052995052
226	0xbe0204f3	-0.126972
227	0x3c0931bd	0.008373675
228	0xbe04b7c4	-0.12960726
229	0xbd4c7b7f	-0.049922463
230	0xbe8cd238	-0.27504134
231	0xbe2f7132	-0.17133024
232	0x3dddaae4	0.108236104
233	0xbee0ac01	-0.4388123
234	0xbeb738a3	-0.35785398
235	0xbdb31f70	-0.087462306
236	0xbe905b18	-0.281945
237	0x3c90d047	0.01767744
238	0xbd924203	-0.07141497
239	0xbee0bc5c	-0.43893707
240	0xbe0d51ed	-0.13800783
241	0xbe338857	-0.17532478
242	0x3c1e96ff	0.009679555
243	0xbe250e0b	-0.16118638
244	0xbeab439d	-0.33450022
245	0xbe22daba	-0.1590375
246	0x3c4a5da2	0.012351425
247	0xbc8de8cb	-0.017322918
248	0xbe84de47	-0.25950834
249	0xba8fdf6a	-0.0010976617
250	0xbc2d9e4b	-0.010596822
251	0xbe077f90	-0.13232255
252	0xbde4f2c6	-0.11179118
253	0x3c69ad4a	0.014262507
254	0xbec50285	-0.38478485
255	0xbd904735	-0.07044832

l3/b f4 [128]
0	0x4080c02c	4.0234585
1	0xbddf0f32	-0.1089157
2	0xbf00f267	-0.50369877
3	0xbd827f75	-0.06371967
4	0xbd3868dd	-0.04502188
5	0xbd34234f	-0.043978985
6	0xbdb6dd14	-0.08928886
7	0xbdcd8d82	-0.10036756
8	0xbdf15294	-0.11783329
9	0x3e616696	0.2201179
10	0xbdd4b665	-0.103863515
11	0xbe6b5da7	-0.22984944
12	0x3f912305	1.1338812
13	0x4085922c	4.1740932
14	0xbca929c2	-0.020649794
15	0xbfc41969	-1.5320255
16	0x3e85d496	0.26138753
17	0xbeb69e62	-0.35667711
18	0x3f41c557	0.7569174
19	0xbe2e3908	-0.17013943
20	0x3f564812	0.8370372
21	0x3f7758e3	0.96620005
22	0x3f014ec5	0.5051082
23	0xbf93c00d	-1.1542984
24	0xc069a6f9	-3.6508162
25	0xbff68667	-1.9259766
26	0xbbcedad2	-0.0063127065
27	0xbcd363a7	-0.025804354
28	0x409d4730	4.91494
29	0x409f77e4	4.983385
30	0xbf0ec5ee	-0.55770767
31	0x3f0777c9	0.5291715
32	0xbe83d69f	-0.2574968
33	0xbe935373	-0.28774604
34	0x3f08884f	0.5333299
35	0xbdfafcf6	-0.1225528
36	0x3e37e48e	0.1795828
37	0x4085a0f8	4.1758995
38	0xbf6ef6bf	-0.93345255
39	0x3eb3e82e	0.35138077
40	0xbecb2933	-0.3967987
41	0x4083fbb4	4.1244755
42	0x3f202f01	0.6257172
43	0x3f89fb91	1.0779897
44	0xc00f5b1f	-2.2399366
45	0x3f46368d	0.7742699
46	0x3f855e63	1.041943
47	0xbd811118	-0.063020885
48	0xbe1116fa	-0.14168921
49	0x3eaf8d4b	0.34287485
50	0xbd53ce87	-0.05171063
51	0xbdd323d1	-0.10309566
52	0xbed3f4dc	-0.4139775
53	0x4091a624	4.551531
54	0xbede2a7a	-0.43391782
55	0xbf13f70d	-0.57798845
56	0xbf9ee981	-1.241501
57	0xbfb34356	-1.4004924
58	0x4069f8e6	3.6558166
59	0x3cee8ead	0.029120767
60	0xbf061188	-0.523705
61	0xbd263068	-0.040573508
62	0xbf264c16	-0.6495985
63	0xbdf3630b	-0.11884125
64	0x40355395	2.8332264
65	0xbe244c48	-0.16044724
66	0xbe22e15e	-0.15906283
67	0x3f06f686	0.52719915
68	0xbe8aedaf	-0.27134463
69	0x4015a0a8	2.3379307
70	0xbed7daa2	-0.4215899
71	0xbd882652	-0.06647934
72	0x3df81773	0.121138476
73	0xbe30f520	-0.17281008
74	0x3f38cc99	0.7218719
75	0x3cd41123	0.025887078
76	0x3e72ee28	0.23723662
77	0xbe6fa145	-0.23401363
78	0x3f831545	1.0240866
79	0x3f5b79f0	0.85732937
80	0xbe9fe8ac	-0.31232202
81	0x3fd12df2	1.6342146
82	0xbf16bc3b	-0.58880967
83	0x402d93a0	2.7121353
84	0x397feeb4	0.00024407619
85	0x405f1227	3.485483
86	0x3fb88a86	1.4417274
87	0xbf1b1619	-0.60580593
88	0x40109eb7	2.2596872
89	0x403a2eb9	2.9091017
90	0xbe36232a	-0.17786852
91	0x3f6e8507	0.93171734
92	0x3fe26d18	1.7689543
93	0xbf21f19c	-0.6325929
94	0xbe16bca1	-0.14720394
95	0x3e01414b	0.12622564
96	0xbd0218fd	-0.031762112
97	0xbe0b6c0d	-0.13615437
98	0xbee297d2	-0.44256455
99	0x4001ee7a	2.0301805
100	0xbf0327c4	-0.5123255
101	0x3ef11a32	0.47090298
102	0x408458ab	4.1358237
103	0xbf57aac3	-0.84244937
104	0xbf249db3	-0.6430313
105	0x3fea73db	1.8316606
106	0xbe2439b7	-0.16037641
107	0xbd0bff49	-0.034179006
108	0x4027330e	2.6124911
109	0xbcd6fc29	-0.026243286
110	0x3f111f69	0.56688553
111	0x3be0bf6d	0.006858757
112	0x3f04302a	0.5163599
113	0x3e9ebe8a	0.31004745
114	0x3f925008	1.1430674
115	0x3fad57e7	1.3542451
116	0xbdd01d88	-0.10161883
117	0x408b8c4e	4.360877
118	0x3f553183	0.83278674
119	0x3f27525f	0.65360063
120	0xbcc8bfdf	-0.024505554
121	0xbef51786	-0.4786951
122	0x3f316a4a	0.6930281
123	0xbd65ae09	-0.056074176
124	0xbe607ddb	-0.2192301
125	0x3ffbbb3b	1.9666513
126	0xc03f4114	-2.988347
127	0xbe29cdbe	-0.1658239

l3/W f4 [128, 128]
0	0x3f925ea6	1.1435134
1	0xbe1e7ff6	-0.154785
2	0xbee68447	-0.45022795
3	0x3e5af8c2	0.21383956
4	0xbfe0bcf9	-1.755767
5	0x3dcd6444	0.1002889
6	0x3ed16ce3	0.40903386
7	0xbd594603	-0.053045284
8	0x3e0016b8	0.12508667
9	0x3dcece31	0.10097922
10	0xbdaf70dc	-0.08566448
11	0x3edfeb74	0.43734324
12	0x3d8afe32	0.06786765
13	0x3cc0102d	0.023445213
14	0xbf2e0462	-0.6797544
15	0x3ef40dcd	0.4766678
16	0x3ac339cb	0.0014894543
17	0x3d363161	0.044480685
18	0xbf4f7465	-0.8103698
19	0xbce2d15f	-0.027687727
20	0xbe11ffd9	-0.14257754
21	0x3da0d600	0.07853317
22	0xb978eb9d	-0.00023738896
23	0xbf859ac0	-1.0437851
24	0x3dca5f0f	0.09881412
25	0xbd4d36ec	-0.050101206
26	0x402132c9	2.5187247
27	0xbab21729	-0.0013587225
28	0xbeabbe03	-0.33543405
29	0x3d90b1b5	0.07065145
30	0xbdde8469	-0.10865099
31	0x3e44f5b6	0.19234356
32	0x3d574b46	0.05256202
33	0xbdce710c	-0.10080156
34	0xbf4cff5d	-0.80077153
35	0xbde92b94	-0.11385265
36	0x3d3fa9ee	0.046792917
37	0x3da658cc	0.081224054
38	0xbfec5db2	-1.8466094
39	0xbfb82df6	-1.4389026
40	0xbe9f1423	-0.3107005
41	0x3d4c0f23	0.049819123
42	0x3e3bd616	0.18343386
43	0x3e443ed6	0.19164595
44	0xbed1db5d	-0.40987673
45	0x3f944652	1.158396
46	0xbc5b6956	-0.013391813
47	0x3f3a734a	0.7283217
48	0x3d655c3b	0.05599616
49	0xbe1c1c92	-0.15245274
50	0x3c1bf606	0.009519106
51	0x3cde3e7f	0.02712941
52	0xbf225b9e	-0.63421047
53	0x3e166f20	0.14690828
54	0xbdb8ed17	-0.09029596
55	0xbcaf55cb	-0.021403214
56	0x3f074953	0.5284626
57	0x3ff03b2c	1.8768058
58	0xbda3e6ef	-0.080030315
59	0xbdd4f5ac	-0.10398421
60	0x3dd50713	0.1040174
61	0x3fa6317e	1.2983854
62	0x3d151212	0.036394186
63	0xbd82a0d1	-0.063783295
64	0x3d2d9d3d	0.042386282
65	0xbb842b48	-0.00403348
66	0xbbf0d2d1	-0.00734935
67	0xbd8e99f1	-0.06962956
68	0xbd0d03b8	-0.034427375
69	0x3dbb8e11	0.091579564
70	0x3f7518a0	0.957407
71	0xbfc703e2	-1.554806
72	0xbe396410	-0.18104577
73	0x3c8f4ebe	0.017493602
74	0xbd56921a	-0.052385427
75	0xbfbc8800	-1.4729004
76	0x3cfbfe06	0.030760776
77	0x3da32f58	0.079680145
78	0xbf188345	-0.595753
79	0xbe3b0497	-0.1826347
80	0x3ce49395	0.027902404
81	0xbe9e9829	-0.30975464
82	0x3cfa53a9	0.03055747
83	0x3db5369d	0.08848307
84	0x3e086763	0.13320689
85	0xbcc2c683	-0.023776298
86	0x3db95aee	0.090505466
87	0x3d52ca91	0.051462714
88	0x3b66ca6f	0.0035215875
89	0x3d85e68c	0.06538114
90	0x3ca18f3f	0.019721625
91	0x3eaafc4c	0.33395612
92	0x3b67166b	0.0035261165
93	0x3d303a9a	0.043024637
94	0x3d588d5d	0.05286919
95	0x3eed317e	0.46326822
96	0x3fa25539	1.2682258
97	0x3d244c11	0.040111605
98	0xbec1b51d	-0.3783349
99	0x3e160ad4	0.14652568
100	0xbdba9877	-0.091111116
101	0x3e263c9b	0.16234057
102	0x3e78e058	0.2430433
103	0xbf69fe1b	-0.9140336
104	0xbe8519f6	-0.2599637
105	0x3c9f3f58	0.019439384
106	0x3b3fb0d6	0.002924969
107	0xbe156aee	-0.14591572
108	0xbc230e9f	-0.009952216
109	0x3f101536	0.56282365
110	0x3ebaf7ef	0.36517283
111	0xbe2bb363	-0.1676765
112	0xbd86eeb8	-0.06588501
113	0xbf2972fb	-0.6619107
114	0x3e0676da	0.13131276
115	0x3e639aeb	0.22227065
116	0xbd35a0df	-0.04434287
117	0x3b7055f8	0.0036672335
118	0xbdfd5174	-0.123690516
119	0xbd0e9b99	-0.03481636
120	0xbd72bca1	-0.05926192
121	0x3c9b45a0	0.018954098
122	0xbe1d64f2	-0.15370539
123	0xbe9f0eed	-0.31066075
124	0x3d48c928	0.049019963
125	0x3f1f3b1f	0.62199587
126	0x3daa63b1	0.08319796
127	0xbe9ff190	-0.31238985
128	0xbe055846	-0.13021955
129	0x3c656c94	0.014002938
130	0x3c76d38e	0.015065087
131	0xbc5aaf05	-0.013347392
132	0xbe028002	-0.12744144
133	0x3e22c3ee	0.15895054
134	0x3d8bfeed	0.068357326
135	0x3d3b9cc3	0.045803796
136	0x3dec7825	0.11546353
137	0xbbf14be3	-0.0073637827
138	0xbda642fa	-0.081182435
139	0xbf37a47f	-0.71735376
140	0xbc8b5333	-0.017007446
141	0xbe0d7768	-0.13815081
142	0xbe84da2f	-0.2594771
143	0xbd82a632	-0.063793555
144	0x3d9b9e88	0.07598597
145	0xbc9103b3	-0.01770196
146	0x3db99875	0.09062282
147	0x3b570d95	0.0032814492
148	0xbdc5d21b	-0.09659215
149	0xbdb707be	-0.089370236
150	0x3c3f6d95	0.011683841
151	0xbe1789d3	-0.1479867
152	0x3c7c53a9	0.0154008055
153	0x3d9e7c28	0.07738525
154	0xbe18d1f3	-0.1492384
155	0x3dd70dbd	0.10500667
156	0xbd784534	-0.060612872
157	0xbd32787f	-0.043571945
158	0x3ddadb4d	0.106863596
159	0xbc5ae4ec	-0.013360243
160	0xbca4aad7	-0.020100994
161	0x3da55e81	0.08074666
162	0x3da65dd9	0.08123369
163	0xbd6e9f0c	-0.058257148
164	0xbd3f0af1	-0.046641294
165	0x3df8e1ea	0.12152465
166	0xbd09a7c2	-0.033607252
167	0xbeb7a0c0	-0.3586483
168	0xbdbae82f	-0.09126317
169	0x3c926fd1	0.017875584
170	0xbdda3890	-0.1065532
171	0x3bf91a23	0.0076019927
172	0x3d8d5955	0.06901804
173	0xbcd2943f	-0.025705455
174	0xbd35b706	-0.044363998
175	0xbe5150d6	-0.20440993
176	0xbc053537	-0.008130363
177	0xbca81fef	-0.02052304
178	0x3d07932d	0.033099342
179	0x3c8abd93	0.0169361
180	0x3d83aa0d	0.06428919
181	0x3d324b69	0.043528948
182	0xbdd1c5d2	-0.10242809
183	0xbdc0a759	-0.09406919
184	0xb9a1ed63	-0.0003088518
185	0xbe5b6873	-0.21426563
186	0x3e880f94	0.26574385
187	0xbd9b77e4	-0.07591227
188	0x3e2511f3	0.16120128
189	0xbe914742	-0.28374678
190	0x3d1f3587	0.038869407
191	0x3bca7bc9	0.006179307
192	0x3d6a057f	0.057134148
193	0xbc8124ac	-0.015764557
194	0x3c8e5de2	0.017378751
195	0x3d435c5d	0.047695506
196	0x3d80558c	0.06266317
197	0x3c12eab0	0.008967087
198	0xbf39398f	-0.7235345
199	0xbda6ee33	-0.08150902
200	0xbe150fb5	-0.14556773
201	0x3d280d1a	0.04102812
202	0xbdb19f6c	-0.086729854
203	0x3d955e47	0.072933726
204	0xbe0f11e6	-0.13971671
205	0x3bdeb3d9	0.006796342
206	0x3e17bfad	0.14819212
207	0x3d887523	0.06662967
208	0xbb9e1160	-0.0048238486
209	0xbe255d18	-0.16148794
210	0x3e060dde	0.13091227
211	0xbc3eee43	-0.011653486
212	0x3d117bed	0.035518575
213	0xbd10da73	-0.03536458
214	0xbcc02114	-0.023453273
215	0x3d7b263c	0.06131576
216	0xbc82ed32	-0.015982244
217	0xbdc2f4a5	-0.095193185
218	0x3d88dcaf	0.06682717
219	0xbe0c54c1	-0.13704206
220	0x3d9515a3	0.072795175
221	0xbd41cf56	-0.04731687
222	0x3c67fb3e	0.014159022
223	0xbaafd0a1	-0.0013413617
224	0xbc5e30ce	-0.013561441
225	0x3e0c08bc	0.13675207
226	0xbe64406b	-0.22290199
227	0x3db03948	0.086046755
228	0x3d008709	0.03137878
229	0xbe8b1e06	-0.27171344
230	0xbd40ba65	-0.04705276
231	0x3d5ee00c	0.054412887
232	0x3cc9a94c	0.02461686
233	0xbdad9a00	-0.08476639
234	0x3d78c7bb	0.060737353
235	0x3dec6ada	0.11543818
236	0xbd29b5d5	-0.041433174
237	0xbccdf82b	-0.02514275
238	0xbe734028	-0.23754942
239	0x3dbf07b0	0.09327638
240	0xbe85898a	-0.26081496
241	0x3e41f21c	0.18940014
242	0xbcbf4c16	-0.02335171
243	0xbdcbdde8	-0.09954435
244	0xbde4547a	-0.11148925
245	0xbd65c1b2	-0.056092925
246	0xbc3e903b	-0.011631067
247	0xbd886356	-0.06659572
248	0xbdfe5c07	-0.124198966
249	0xbca9ac20	-0.020711958
250	0x3c8e5a24	0.017376967
251	0x3d90b424	0.07065609
252	0x3e137d96	0.14403376
253	0xbd6881d5	-0.056764442
254	0xbda7972f	-0.08183133
255	0xbbbf6b1c	-0.005841626
